model(a).pth (torch, 649195 bytes, 2 tensors)

layer.1.weight f4 [180, 720]
00000000: 2481 b7bd 5d4f bc3d 478d 9cbd e4af 1e3e
00000010: 96e1 abbd ebe7 1d3e f864 8bbd d470 bf3d
00000020: 9759 91bd d8f3 fe3d d0e4 98bd 1297 183e
00000030: f410 36bd f178 0c3e 3460 83bd 0c34 d23d
00000040: 2c35 8bbc 4ee9 1f3e 7a60 86bd bfcb 253e
00000050: c6de 5bbd 0f83 123e 79be 9fbd 47ba ce3d
00000060: 2043 2fbd ac7f f03d f163 57bd 60b7 fc3d
00000070: 6869 43bd 8ff8 213e 385b dcbc f2f2 163e
00000080: 3b80 16bd 1c51 c73d f9f6 b3bd cf04 c43d
00000090: df6a 94bd 513b f73d b8a6 5dbd 64f7 1d3e
000000a0: 27ea 1bbd 82b2 013e c367 8abc 4f19 0a3e
000000b0: 2942 60bd f1ba eb3d f860 fabc 50f7 183e
000000c0: 6cb5 26bd e326 ca3d 5ddc 90bc fdb7 b03d
000000d0: 67f4 61bc ebb6 f53d 7f8b 8bbd 1300 9f3d
000000e0: 9fea a2bc 1d5e 033e cadf 8bbc e584 e33d
000000f0: 228d a8bd a9d5 f13d 91ff d0bc 81ca b53d
00000100: 82ae 8abd 5747 e03d 3be0 dabc 2673 c33d
00000110: 0653 86bd 4d87 f93d 8281 43bd b498 c53d
00000120: 366d 34bc cea0 dd3d 3ea8 17bc 5e80 3b3d
00000130: 1778 89bd cdb6 b13d c767 02bd e296 423d
00000140: d240 c9bc 9906 843d f403 49bd 478b c13d
00000150: e773 98bd b819 0e3d e758 8bbb 89f9 4f3d
00000160: 26e9 f1bc b502 973d a8ec 13bd b581 203d
00000170: 8dd2 90bd 1edb d43c 18a2 49bd be3c e33c
00000180: c547 90bd d082 753d ae08 92bd c3d4 9a3d
00000190: d8d7 8bbd f4b6 673d e2bf f5bb bbcd a83d
000001a0: b53e 80bd 31fe 6c3d a2fc 71bd 88bc 6d3d
000001b0: 3dc6 efbc 62dc 443d 08dc 11bd cd34 0c3c
000001c0: 86fd 3abd 1f86 043c 0874 3cbd 2e71 153d
000001d0: 3c44 69bd 46f0 7d3d 2f9a 90bc 934f a23c
000001e0: cb86 50bd c836 b73c 7412 05bd 7d3d 813d
000001f0: 23b7 b0bc a12a 553d 11fa 36bd ae8d 173d
00000200: 32a3 d1bc 1abe cf3b 4b09 51bd 1181 353d
00000210: a9e1 44bd dbf1 ce3c 20a8 ab3a 482d d0bb
00000220: 55e1 f9bb a126 393c 08fb 34bd 447d 8d3c
00000230: a64e 8f3c 7640 8ebc 2ba3 3cbd f67a f4bb
00000240: 47af 8abc 425f 233a f360 34bc de2d 01bb
00000250: f989 aabc 2f9a 2f3d 31d1 61bc 70e5 363b
00000260: ca49 7b3c 00a1 b0bb b2f8 8a3c 24f5 9ebc
00000270: aabe 2cbd 1e30 8cbc cb29 603c 5a75 293b
00000280: 53f7 9b3c d83f a1bc 9c2a 8dbc 2e87 bebc
00000290: aa80 923c 1115 e63b 3026 e23a e130 423c
000002a0: 3a63 6ebc 7b8f 86bb dcb6 ac3c ecef 0c3c
000002b0: 9b00 6fbc 0254 f1bc 7835 623c e63b 1e3c
000002c0: 92a8 073c 9232 db3a 1674 b0bc 92c8 48bd
000002d0: 335d 093d 4aac 5fbc 0290 103c beeb b43c
000002e0: 3bf8 d4bc 1374 2fbc febb 2c3d dd58 943b
000002f0: 0e67 873b 6f5c 1bbd 38ed f83c c325 8cbc
00000300: 75a4 b73b 81cd f5bc 3019 e1bb df69 9dbb
00000310: 98d5 1b3c 2eb8 15bd a8c2 b43c 5b87 61bd
00000320: 283e 333d eeb1 1cbc 20e3 203b 174e 723b
00000330: 2976 1f3d ab9a 64bd 28fd 543d 20ab 72bd
00000340: 9931 073c 9216 2abd 7926 5c3d c858 273a
00000350: f2aa 563d 7dfb 83bd 61b0 25bc c562 5bbd
00000360: ba83 b73b 4250 943a d3f5 613d 5001 bebc
00000370: e0cc 7b3d 8212 aabc 4168 243d d911 febc
00000380: 4b1f 8cbb aefb fbbc 72ae 4d3d b1fc 23bd
00000390: e47d 713c 1873 b1bc d31a e03c b166 37bd
000003a0: b379 c33c e162 97bd 509a 743d 04f6 38bd
000003b0: c1bc 223c 90f2 fbbc dc83 933d a99f 00bd
000003c0: ff4b 773d b4ac f7bc 900b 713d ff1a fabc
000003d0: 4d6a 533c d297 00bd 5604 833d 8e1c 65bd
000003e0: 92d0 203d de96 8bbd d529 983d cfd3 86bd
000003f0: ce12 413d f1f4 afbd cc2e 5a3c 84e4 26bd
-0.089601785 0.09194825 -0.07644134 0.15496784 -0.083926365 0.15420501 -0.06806368 0.09347692
-0.07097166 0.12448853 -0.074655175 0.14901379 -0.04444976 0.1371801 -0.06414834 0.102638334
-0.016993128 0.15616342 -0.0656137 0.16191004 -0.05367925 0.14307807 -0.07800002 0.10094123
-0.042788625 0.117431015 -0.052585546 0.123396635 -0.047707945 0.15817474 -0.026898965 0.14741114
-0.036743384 0.09732267 -0.08787341 0.0957123 -0.072469465 0.120718606 -0.054114074 0.15426403
-0.038065102 0.12665752 -0.01689518 0.13486217 -0.054750595 0.115102656 -0.030563816 0.14938092
-0.04070036 0.09870698 -0.017683202 0.08628843 -0.01379118 0.119977795 -0.06813716 0.07763686
-0.019887267 0.1282887 -0.017074484 0.11109332 -0.08230044 0.118083306 -0.025512489 0.08876515
-0.06771566 0.10951107 -0.02671825 0.09543447 -0.06558804 0.1218401 -0.04773093 0.096482664
-0.011012366 0.10821687 -0.009256421 0.045776717 -0.067123584 0.086774446 -0.03183725 0.047507174
-0.024567042 0.06446571 -0.049076036 0.09450393 -0.074439816 0.034692496 -0.0042525413 0.050775085
-0.02953012 0.07373563 -0.036114365 0.0391862 -0.070714094 0.02598339 -0.04922685 0.027738925
-0.07044939 0.059939206 -0.07130562 0.07560112 -0.06828278 0.056570962 -0.007499681 0.08242365
-0.062619604 0.057859603 -0.05907882 0.058041126 -0.029269332 0.048061736 -0.03561023 0.008557511
-0.045651935 0.008088618 -0.046009094 0.03648489 -0.05694984 0.06199672 -0.017651645 0.019813335
-0.0509098 0.022364989 -0.0324883 0.06310556 -0.021571701 0.052042607 -0.044672076 0.03700035
-0.025590513 0.0063398005 -0.051034253 0.04431254 -0.04806677 0.02526181 0.001309637 -0.006353054
-0.0076257386 0.011300714 -0.044184715 0.017271645 0.017493557 -0.017364722 -0.046054047 -0.007460947
-0.016929282 0.0006232151 -0.011009443 -0.0019711177 -0.020817744 0.04287165 -0.013782785 0.0027907752
0.015337417 -0.0053902864 0.01696429 -0.019404002 -0.04217402 -0.017112788 0.013681839 0.00258573
0.019038832 -0.019683763 -0.017232232 -0.023257818 0.017883617 0.0070215543 0.0017253812 0.011852474
-0.014550025 -0.0041064597 0.021083288 0.008602124 -0.014587547 -0.029459003 0.013806693 0.009657836
0.008279936 0.0016723445 -0.02153973 -0.049019404 0.033536147 -0.013651917 0.008823397 0.022085067
-0.025997272 -0.010708827 0.04217147 0.004527195 0.004132158 -0.03792995 0.030386552 -0.01710785
0.0056043216 -0.030005218 -0.0068694577 -0.0048038806 0.009511374 -0.0365526 0.022065476 -0.055060726
0.04376045 -0.009563906 0.002454944 0.0036972815 0.038931046 -0.055811565 0.05199924 -0.05924523
0.008251571 -0.04152543 0.053747628 0.0006383774 0.05240912 -0.06444452 -0.010112853 -0.05356099
0.00560042 0.0011315423 0.055166077 -0.023193985 0.06147468 -0.020760778 0.040138487 -0.03101437
-0.0042761914 -0.030759659 0.050215192 -0.040035907 0.014739487 -0.021661326 0.02735654 -0.04477567
0.023861742 -0.073919065 0.059717476 -0.045156494 0.009932698 -0.030755311 0.072028846 -0.031402264
0.06037521 -0.030233718 0.058848917 -0.03053045 0.012903762 -0.031394787 0.063973114 -0.055935435
0.03926141 -0.06815885 0.07429854 -0.06583368 0.047137074 -0.08591641 0.013316821 -0.040745273

layer.3.weight f4 [180, 180]
00000000: a717 84bd 7ed7 f2bd 9409 debd 6925 3fbd
00000010: c7b5 8dbd 4e82 b9bd 08d2 5dbd e5f8 dbbd
00000020: 2b3a ccbc 9824 cfbd dd77 4bbd 3f12 81bc
00000030: 2525 e5bc 51b5 13be 22d4 aebd 3b76 babc
00000040: 5c41 26bd 9065 97bd 8a05 11be 71f5 cebd
00000050: 9e11 76bd 5186 cfbd e9ef 9ebd 3109 69bc
00000060: 1bbb 45bd 5c43 27bc 6f8c 9e39 48a6 c7bd
00000070: 6340 13be cee4 48bd b0af cfbd 1be8 17be
00000080: 1c82 e8bd 1ecd 54ba 0f49 d2bd 2694 3cbd
00000090: c2e4 98bd c4f1 14bd 6e2b 1abc 1d7e afbd
000000a0: 49e6 e8bc ca5b 1cbc e8df 00be f0f8 59bd
000000b0: 07ba 90bd fe0c 51bd db3e 6fbc 98ec b3bd
000000c0: 8234 2fbd c4e0 c4ba aca4 23bd b977 10be
000000d0: 16e3 f9bb e223 b5bb e9da cfbd 058a 10bc
000000e0: 2b4c 49bd 9cdf 01be 485e dabc de0c 00be
000000f0: 6241 1ebd dae3 fdbd 31e9 37bd a48f 64bd
00000100: 44ac f4bd e9e0 97bd 0298 cbbc 8393 08be
00000110: 8a2d d0bd 2ccf 11bb fd60 e9bd 4b8c 36bd
00000120: 56c0 fbbd 1747 e8bc 5332 b1bd 0117 15be
00000130: 834a 93bd 999e fbbd dda2 02be 99ba 4bbd
00000140: e2bf 97bd 7d36 9abc 5594 9abd 73cc ccbd
00000150: 931f fbbc a1af 7dbd 4d04 07be 95b1 7bbc
00000160: e1b6 81bd 472e eebd 6ca0 d2bd 4b06 2dbd
00000170: 3dc8 a0bc 80c5 80bc 728b 0cbe f042 5dbc
00000180: 2a70 15be f95d cbbd 4183 c2bd 6c44 86bd
00000190: 4b34 b1bd 7aca d8bd dd19 3bbd a364 00be
000001a0: 68c8 82bd a065 09be ca72 bbbb 6238 f6bd
000001b0: eab2 86bd f90d c2bd a313 9bbd aa1d 50bd
000001c0: 2953 cdbd 469f 19be d877 8abc bf8a a3bc
000001d0: 331b 83bb 48df 01be e393 68bc 654e f1bc
000001e0: b593 b3bd 1a3c a1bd 7e4e 3ebd 3cb4 f2bc
000001f0: 9efa cbbd a04d d1bd a3bd bbbd 2f2a 99bd
00000200: 1091 1abe 9437 bfbc 7fd5 e7bd 520b b3bc
00000210: 8b89 0ebe 071a 96bd ede4 b9bd 4696 9cbd
00000220: 9728 a8bd a87f 16be be0a d4bc c72f 09be
00000230: b02a f7bd aa09 2dbd 6312 b0bd 1f99 85bd
00000240: bc58 41bc 83da 2fbd 114d d1bd 3b4f 8bbd
00000250: 3287 e7bd 55dc 9dbd 67c8 e4bb 6d05 61bd
00000260: b560 5abd 0035 19be 7bac d9ba 4f77 10be
00000270: 4399 8ebd 7fb9 a8bd 401a e0bc 709d f0bc
00000280: 8901 d5bc 29e4 50bd f2e6 e9bd e034 a1bc
00000290: 2c26 bdbc 305f e6bd 6cf4 debd 29a4 56bd
000002a0: 92bf 3fbd e232 0fbd d5b8 1dbc 2730 f0bd
000002b0: 327b 85bd 6e82 8dbd 1137 ccba 0864 c8bc
000002c0: a40f 11bd e987 11be 66e7 08be e430 22bc
000002d0: 96bd 9c3d c91a da3d 3ce5 b8bc 896a ebbc
000002e0: 9267 aa3c 9252 8cbc 07c8 96bd 87ff 473d
000002f0: c23a e13d 0e0e d8bc 7ac6 0cbd d2e1 59bc
00000300: 8ed4 2cbd 24eb efbc 8142 1cbb 79cd 1a3d
00000310: 29f1 1cbc ee3a 643c 715c 873d 2e81 1cbd
00000320: aad2 313d 6a1f 9c3d cba0 3abc 15cb 4abd
00000330: bfbf a6bd 57fe 9b3d 87b8 9fbc 5b03 b23d
00000340: 9099 62bc e0d8 62bd 5622 883d 472a 0cbd
00000350: c5b6 a33c ddbb 083d 9b33 e13d ee8b 85bb
00000360: 0899 a7bd 13c9 87bd b8b4 e7bc f5a4 203d
00000370: 8f2d bebb 6b1c 94bd ac27 9d3d bbea d4bc
00000380: 20fe a23c 53a4 3e3d a80d e6bc 0839 3ebd
00000390: 1e2b 9b3d 9148 85bd 5413 4cbd 30bf 3fbb
000003a0: 4d04 0abd dc96 a7bd 5ab7 09bd c38a 0cbd
000003b0: fa1d e6bc da8c 94bc 83af a6bc 1616 1a3d
000003c0: e231 833d 5c05 1abd e2c3 9ebb 1d44 b9bd
000003d0: 01d4 4fbd da09 66bd 4310 f23c 2394 803d
000003e0: 2a65 83bd 3d28 9b3d 0243 b1bd f2e4 363d
000003f0: 5d35 89bc 8d74 8a3a 6d74 a33d 6c35 b43c
-0.06449824 -0.11857508 -0.10841671 -0.046666536 -0.06919437 -0.09058057 -0.05415538 -0.10740832
-0.02493008 -0.101144016 -0.049674857 -0.01575577 -0.027971813 -0.14424635 -0.08536555 -0.022761455
-0.040589675 -0.073924184 -0.14162269 -0.10105408 -0.060075395 -0.10133041 -0.07760603 -0.014223383
-0.04827414 -0.010208931 0.0003024074 -0.097485125 -0.1438003 -0.04904633 -0.101409316 -0.14834635
-0.113529414 -0.0008117723 -0.10267841 -0.046039723 -0.07465507 -0.03636338 -0.0094097685 -0.08568976
-0.028430121 -0.009543369 -0.12585413 -0.05321592 -0.07066732 -0.05103778 -0.014602388 -0.08785361
-0.042774685 -0.0015020599 -0.039951965 -0.1410817 -0.0076259477 -0.005527959 -0.10149176 -0.008821969
-0.049144905 -0.12682956 -0.026656285 -0.12504908 -0.038636573 -0.12396975 -0.044900123 -0.05580105
-0.119469196 -0.07415945 -0.024852756 -0.13337521 -0.10164936 -0.0022248728 -0.11395452 -0.044567388
-0.122925445 -0.02835421 -0.08652177 -0.14559557 -0.07191946 -0.122861095 -0.1275744 -0.0497385
-0.074096456 -0.01882481 -0.07547823 -0.09999933 -0.030654704 -0.06193507 -0.13185234 -0.015362163
-0.063337095 -0.116299205 -0.10284504 -0.04224233 -0.019626731 -0.015719175 -0.13725069 -0.013504729
-0.14593568 -0.09930033 -0.09497691 -0.06556019 -0.08652552 -0.10585494 -0.045678962 -0.1253839
-0.06385881 -0.13417673 -0.005720471 -0.12022473 -0.06577094 -0.09475321 -0.07572105 -0.05080954
-0.10025627 -0.15002164 -0.01690285 -0.01996362 -0.004001045 -0.12682831 -0.014195415 -0.029456327
-0.08768407 -0.078727916 -0.046461575 -0.029626958 -0.09959911 -0.10219884 -0.0916703 -0.07478749
-0.150944 -0.023341931 -0.11320018 -0.021855984 -0.13919656 -0.07329183 -0.09076867 -0.0764585
-0.08210867 -0.14697134 -0.025884029 -0.13397132 -0.12068689 -0.042245544 -0.08597257 -0.06523346
-0.011800941 -0.042933 -0.102197774 -0.068022214 -0.11305083 -0.077080406 -0.0069818976 -0.054936815
-0.053314883 -0.14961624 -0.0016607189 -0.14108013 -0.06962826 -0.082385056 -0.027356267 -0.029371947
-0.026001709 -0.05099884 -0.114210024 -0.019678533 -0.02308949 -0.11248624 -0.108864635 -0.05240265
-0.046813555 -0.034960635 -0.009626587 -0.11727934 -0.06517638 -0.06909643 -0.0015580376 -0.024461761
-0.035415307 -0.14212002 -0.13369521 -0.009899352 0.07653348 0.1064964 -0.022570245 -0.028737323
0.02080134 -0.017129216 -0.07362371 0.048827674 0.10997535 -0.02637389 -0.03436897 -0.013298469
-0.042194895 -0.029286928 -0.002384335 0.03779361 -0.009578981 0.013930066 0.06609429 -0.038209133
0.043413796 0.07623179 -0.011390875 -0.04951008 -0.081420414 0.07616871 -0.01949717 0.08692046
-0.013830557 -0.05538261 0.06647174 -0.034220006 0.019984612 0.033382285 0.10996171 -0.004075519
-0.08183485 -0.06630149 -0.028284416 0.039219815 -0.005803771 -0.07231983 0.076735824 -0.025990834
0.019896567 0.04654343 -0.028082684 -0.046441108 0.07576583 -0.065079816 -0.04982312 -0.0029258244
-0.033695508 -0.08183071 -0.033622123 -0.03431202 -0.028090466 -0.01813357 -0.020347362 0.03761872
0.06405999 -0.037602767 -0.0048451284 -0.09046195 -0.050739292 -0.05616174 0.02954877 0.06278255
-0.0641578 0.07576034 -0.08655359 0.044651933 -0.016749078 0.0010563299 0.07981191 0.02199813
