model(o).pth (torch, 650216 bytes, 3 tensors)

layer.1.weight f4 [180, 720]
0	0x3df785cf	0.12086069
1	0x3d0e3470	0.034717977
2	0x3d9879f9	0.074451394
3	0xbc2a17d7	-0.01038166
4	0x3dea889b	0.11451837
5	0x3cb5ff42	0.022216443
6	0x3df9677c	0.12177941
7	0xbc44364e	-0.011975838
8	0x3df31483	0.11869147
9	0x3c716a50	0.0147348195
10	0x3e0453cc	0.12922591
11	0xbc9a9d2f	-0.01887378
12	0x3dfed434	0.12442818
13	0xbcc9c2da	-0.024629045
14	0x3dfe940e	0.12430583
15	0x3d3b1aa2	0.045679696
16	0x3daee935	0.085405745
17	0x3cd75311	0.026284726
18	0x3d9bbb55	0.0760409
19	0x3c953063	0.01821155
20	0x3e0ca78b	0.13735788
21	0xbc0a7e2b	-0.008452932
22	0x3dca6ea2	0.09884383
23	0xbc828c4e	-0.015936043
24	0x3dc7b1f5	0.097507395
25	0x3d19e757	0.03757414
26	0x3dcc0c58	0.09963292
27	0x3d98bcb2	0.07457866
28	0x3dbebc59	0.09313268
29	0x3d60b6ae	0.054861717
30	0x3de85ad2	0.113454476
31	0x3c9ffb0f	0.019528894
32	0x3dbde460	0.09272075
33	0x3cbbcc6e	0.022924628
34	0x3e0169df	0.12638043
35	0x3d4d7914	0.050164297
36	0x3db6137d	0.08890436
37	0x3cd6e00d	0.026229883
38	0x3db51249	0.08841378
39	0x3daca25f	0.08429407
40	0x3d81b363	0.063330434
41	0x3d123a94	0.035700396
42	0x3da89c5c	0.08232948
43	0x3ced1812	0.028942142
44	0x3dbce40e	0.092231855
45	0x3d4becfc	0.049786553
46	0x3dedfdc9	0.11620671
47	0x3d2e58eb	0.042565268
48	0x3d936dd8	0.071986854
49	0x3d59a45f	0.053135272
50	0x3d96ac08	0.07357031
51	0x3d193f92	0.03741414
52	0x3daa7028	0.08322173
53	0x3d959ca1	0.07305265
54	0x3d1b71f1	0.03795046
55	0x3d0f7fe3	0.03503407
56	0x3d7cb497	0.06169566
57	0x3dc2ef65	0.09518317
58	0x3d36b435	0.044605453
59	0x3d41184b	0.04714231
60	0x3db45c19	0.08806629
61	0x3db6de98	0.08929175
62	0x3d62605b	0.055267673
63	0x3d93a2c6	0.07208781
64	0x3d9d97d7	0.07694977
65	0x3dc093ad	0.09403167
66	0x3d11b6b7	0.03557464
67	0x3d8310a6	0.0639966
68	0x3c98aa9d	0.018636042
69	0x3dc87f78	0.09789938
70	0x3c327978	0.010893218
71	0x3dcc8046	0.09985404
72	0x3d9d1e9b	0.07671853
73	0x3defe038	0.11712688
74	0x3d6164c3	0.055027734
75	0x3d9b895a	0.07594557
76	0x3d0b048a	0.033939876
77	0x3ddd93c9	0.108192034
78	0x3d258f7c	0.04042004
79	0x3deba726	0.115064904
80	0x3bc64071	0.0060501625
81	0x3dee0899	0.116227336
82	0x3cb153ed	0.021646464
83	0x3db4e14c	0.088320345
84	0x3cf48493	0.029848373
85	0x3dd8a0b4	0.10577527
86	0xbc6ddb68	-0.014517643
87	0x3dd5d57c	0.104411095
88	0x3d6e2ddc	0.058149204
89	0x3d8f13d4	0.06986204
90	0x3ce8e491	0.028429301
91	0x3d635acc	0.055506513
92	0x3c7bcef6	0.015369168
93	0x3dc0cbc5	0.09413866
94	0x3d1febf2	0.039043374
95	0x3d6f8bec	0.05848305
96	0xbb160c85	-0.0022895646
97	0x3dcf1b20	0.101125956
98	0xb8ccdadb	-9.768243e-05
99	0x3e00ff3e	0.12597367
100	0x3bfef33e	0.0077804616
101	0x3da34616	0.07972352
102	0xbcb1e03a	-0.021713365
103	0x3e054e49	0.13018145
104	0x3b55eb61	0.0032641517
105	0x3e03b514	0.12862045
106	0x3bb8bb9f	0.0056376006
107	0x3e16d907	0.14731227
108	0xbc721a3a	-0.014776761
109	0x3dd357c1	0.10319472
110	0xbb922b89	-0.004460756
111	0x3ddda5bb	0.10822626
112	0xbd2c5909	-0.042077098
113	0x3dc93ba0	0.09825826
114	0xbbd52a8f	-0.0065053175
115	0x3ddd0a59	0.10792989
116	0x3c6c96fa	0.0144402925
117	0x3ddd40bd	0.108033635
118	0x3baa332b	0.005194088
119	0x3e089da5	0.13341387
120	0xbcabbae2	-0.020963136
121	0x3e0a62cb	0.13514249
122	0xbc175a40	-0.009237826
123	0x3dce2b01	0.10066796
124	0xbcfb17f0	-0.030651063
125	0x3e093f5c	0.13403076
126	0xbd09c810	-0.03363806
127	0x3dddf83f	0.10838365
128	0xbd49ba7d	-0.049250115
129	0x3df22780	0.1182394
130	0xbd18b3db	-0.0372809
131	0x3e1dc236	0.15406117
132	0xbcf69e05	-0.030104646
133	0x3e02d201	0.12775423
134	0xbbf301fd	-0.0074160085
135	0x3dea1b38	0.11430973
136	0xbd4c61c0	-0.04989791
137	0x3e1a50a6	0.15069827
138	0xbd4438fc	-0.047905907
139	0x3ded953e	0.11600731
140	0xbd0d1c7d	-0.034450997
141	0x3e00dd76	0.1258448
142	0xbd82b455	-0.06382052
143	0x3dcf90e8	0.101350605
144	0xbd6cc265	-0.057802577
145	0x3e290285	0.16504867
146	0xbdada916	-0.08479516
147	0x3e084b13	0.13309889
148	0xbd0cb5fb	-0.034353238
149	0x3e0cc737	0.1374787
150	0xbdc8a1ef	-0.097965114
151	0x3e10a58f	0.14125656
152	0xbd011e0b	-0.03152279
153	0x3e2ed738	0.17074287
154	0xbdd3b577	-0.10337346
155	0x3e064a43	0.13114266
156	0xbda3c86e	-0.07997213
157	0x3e28d8b9	0.16488923
158	0xbcc698da	-0.024242807
159	0x3df56692	0.11982454
160	0xbd6e89b0	-0.058236778
161	0x3e07265a	0.13198224
162	0xbdd715c9	-0.10502202
163	0x3e03d8ad	0.12875624
164	0xbdbf0132	-0.093264
165	0x3e03f8ef	0.1288793
166	0xbdf8952c	-0.12137827
167	0x3e062470	0.13099837
168	0xbd9695f4	-0.0735282
169	0x3e1bea54	0.15226108
170	0xbcff56e6	-0.031169366
171	0x3e0bc321	0.13648655
172	0xbd975bf2	-0.07390584
173	0x3e366a62	0.1781402
174	0xbdaf2c1b	-0.08553334
175	0x3e18ed79	0.14934339
176	0xbd8dcd11	-0.06923879
177	0x3e06859d	0.13136907
178	0xbdf3a514	-0.118967205
179	0x3e213ae1	0.15745117
180	0xbde80cb9	-0.11330552
181	0x3e2ed58a	0.17073646
182	0xbdb63eab	-0.08898672
183	0x3e0ef015	0.13958772
184	0xbda92eaa	-0.082608536
185	0x3deccd5c	0.11562607
186	0xbdd170d8	-0.10226601
187	0x3e175180	0.14777184
188	0xbdd34363	-0.10315587
189	0x3e22d809	0.15902723
190	0xbddef365	-0.108862676
191	0x3e401559	0.18758143
192	0xbdbed407	-0.09317785
193	0x3df361b9	0.118838735
194	0xbdb30b76	-0.087424204
195	0x3e14d115	0.14532883
196	0xbdbc7901	-0.09202767
197	0x3e21f16c	0.15814751
198	0xbdd6c4a2	-0.104867235
199	0x3e159c8f	0.14610504
200	0xbe0d08c4	-0.13772875
201	0x3e143818	0.14474523
202	0xbe10053f	-0.14064501
203	0x3e390ae1	0.18070556
204	0xbdebac63	-0.115074895
205	0x3e04800a	0.12939468
206	0xbdd14460	-0.102181196
207	0x3e0e3f95	0.13891442
208	0xbd93d322	-0.07218005
209	0x3e04f6b9	0.12984742
210	0xbe183b9d	-0.1486649
211	0x3e06eb36	0.13175663
212	0xbdc6a0e9	-0.0969866
213	0x3e163c57	0.14671455
214	0xbe0f003b	-0.13964932
215	0x3e1ea490	0.15492463
216	0xbde63e27	-0.11242323
217	0x3e3c77e7	0.18405114
218	0xbe09b5fb	-0.13448326
219	0x3e0f1812	0.13974026
220	0xbdf36e01	-0.11886216
221	0x3e101cf6	0.14073548
222	0xbe064cbc	-0.1311521
223	0x3dff4bd9	0.12465639
224	0xbded5725	-0.11588887
225	0x3df2c412	0.11853804
226	0xbe1bf707	-0.15230952
227	0x3de5df16	0.11224191
228	0xbdf63612	-0.12022032
229	0x3e1fbd02	0.15599445
230	0xbe29168b	-0.16512506
231	0x3df36d16	0.11886041
232	0xbe1e95b5	-0.15486796
233	0x3e1d65cc	0.15370864
234	0xbe0413f5	-0.12898238
235	0x3e0e4ca2	0.1389642
236	0xbe2839f1	-0.16428353
237	0x3de95536	0.11393206
238	0xbe0df425	-0.13862665
239	0x3dc6f7ac	0.097152084
240	0xbe0c3934	-0.13693696
241	0x3df2f82a	0.1186374
242	0xbe07a90f	-0.13248084
243	0x3e0a2069	0.13488926
244	0xbde691a4	-0.112582475
245	0x3e0065a5	0.12538774
246	0xbe123d08	-0.14281094
247	0x3dea0213	0.11426177
248	0xbe362aaa	-0.17789713
249	0x3dfb4952	0.12269844
250	0xbe11ac01	-0.1422577
251	0x3de2f752	0.11082329
252	0xbe0b315a	-0.13593045
253	0x3dbdbd31	0.09264601
254	0xbde3fa33	-0.11131706
255	0x3df41afe	0.11919211

layer.4.weight f4 [180, 180]
0	0xbe1ccb45	-0.15311916
1	0xbe865fe1	-0.26245025
2	0x3d0ce7f1	0.034400884
3	0xbe2835a9	-0.1642672
4	0x3d1904e0	0.037358165
5	0x3d47b27d	0.048754204
6	0x3ccd8d9d	0.02509194
7	0xbda36a6a	-0.07979281
8	0xbc95c27c	-0.018281214
9	0x3d3a36d2	0.045462437
10	0xbf93bde8	-1.154233
11	0xbe506059	-0.20349254
12	0x3d238816	0.039924704
13	0xbe6849d2	-0.2268441
14	0x3c4f8397	0.012665651
15	0xbd8d3a5c	-0.06895897
16	0x3d4c1c81	0.04983187
17	0x3b61f385	0.0034477424
18	0xbd8e9ac8	-0.06963116
19	0x3d6dfed6	0.05810436
20	0xbe6d45f0	-0.2317121
21	0xbddd5d2c	-0.10808787
22	0xbd57ae08	-0.052656204
23	0xbdf0c891	-0.11757005
24	0xbc718aec	-0.014742594
25	0x3d941e15	0.072323
26	0xbeb8f516	-0.36124486
27	0xbd2dae71	-0.04240269
28	0xbec6763d	-0.38762084
29	0x3d7e7ae9	0.062128935
30	0x3d16c749	0.036811147
31	0xbd04d743	-0.032431852
32	0x3b9a7595	0.004713724
33	0xbc781f6d	-0.015144211
34	0xbc1d2d73	-0.0095933555
35	0xbeb956d6	-0.36199063
36	0xbe86c9a0	-0.26325703
37	0xbee13646	-0.4398672
38	0xbe33f403	-0.17573552
39	0xbeaf61d9	-0.3425434
40	0x3c4a6df3	0.0123553155
41	0xbe38ff45	-0.18066128
42	0xbefdc00d	-0.49560586
43	0xbd3cb20a	-0.04606823
44	0xbec753bb	-0.3893107
45	0xbeaac339	-0.33352068
46	0xbdfd43a7	-0.12366419
47	0xbe7a5cab	-0.24449413
48	0xbe9c70e7	-0.30554888
49	0xbc82873a	-0.015933622
50	0x3d2a7dac	0.041623756
51	0xbeb0e8ec	-0.34552705
52	0xbc5d1bca	-0.013495395
53	0xbe42fc79	-0.19041623
54	0xbda0b588	-0.07847124
55	0xbd05d648	-0.032675058
56	0xbe7928cd	-0.2433197
57	0xbe9c67d6	-0.3054797
58	0xbe933d16	-0.28757542
59	0xbe65c8db	-0.22439902
60	0x3d4f0a3f	0.05054688
61	0x3d826c3e	0.06368302
62	0xc000fe2f	-2.0155141
63	0xbe7231ec	-0.23651856
64	0x3d02f5b4	0.031972602
65	0xbeca4dc1	-0.39512447
66	0xbe1e3a74	-0.15451986
67	0xbfcbdb42	-1.5926287
68	0xbc1959fa	-0.009359831
69	0xbe8de222	-0.27711588
70	0x3d91c98e	0.07118522
71	0x3d13e0b5	0.03610297
72	0xbd91d3d1	-0.07120479
73	0xbd932fc8	-0.07186848
74	0xbcc005c8	-0.023440257
75	0x3d075480	0.03303957
76	0x3c32c9e8	0.010912396
77	0xbd200949	-0.039071355
78	0x3b967813	0.0045919507
79	0x3d38b803	0.045097362
80	0xbd2e0082	-0.042480953
81	0xbe81d1cf	-0.25355384
82	0xbeb9514e	-0.36194843
83	0x3babda31	0.0052445163
84	0xbe7b65d4	-0.24550563
85	0x3d108846	0.03528621
86	0xbebd34a1	-0.36954215
87	0xbc8c831a	-0.017152358
88	0xbd33e7dd	-0.043922294
89	0xbe51a909	-0.20474638
90	0xbe988837	-0.29791424
91	0x3c6fc58f	0.014634504
92	0xbe282014	-0.16418487
93	0xbd674419	-0.056461427
94	0xbdb10e6b	-0.08645328
95	0xbd7ba129	-0.06143299
96	0xbe44a24f	-0.19202541
97	0xbebc6723	-0.36797437
98	0x3d0bddf4	0.034147218
99	0xbf6ffecf	-0.9374818
100	0xbd53bd95	-0.05169447
101	0xbdf96641	-0.121777065
102	0xbef00684	-0.4687997
103	0x3c0bbb83	0.008528593
104	0x3c7364ab	0.014855544
105	0xbd580a6c	-0.052744314
106	0xbe445224	-0.19171959
107	0xbec5caa0	-0.38631153
108	0xbd47e520	-0.048802495
109	0x3d0e3624	0.0347196
110	0xbe8b4350	-0.27199793
111	0xbe9dae9f	-0.30797288
112	0xbd865124	-0.06558445
113	0xbeac4452	-0.33645874
114	0xbd3a33e0	-0.045459628
115	0x3d95dd63	0.07317617
116	0xbe70448d	-0.2346365
117	0x3d35177f	0.04421186
118	0xbcf8d105	-0.030373106
119	0xbc9bb270	-0.019005984
120	0x3cc89f8a	0.024490137
121	0xbe887775	-0.26653638
122	0xbe517940	-0.2045641
123	0x3cb16fac	0.021659695
124	0xbd9558e1	-0.07292343
125	0x3d4280d4	0.04748614
126	0xbc86ac46	-0.016439568
127	0xbdaa7468	-0.08322984
128	0xbc12cf62	-0.008960577
129	0xbebe40d7	-0.37158844
130	0xbd41140b	-0.047138255
131	0xbe4e731b	-0.20161097
132	0x3d51ce3e	0.05122208
133	0x3d3413ce	0.0439642
134	0xbf2213d1	-0.6331149
135	0xbe928681	-0.28618243
136	0xbe3f42b8	-0.18677795
137	0x3c4583d8	0.01205536
138	0xbf03cf9a	-0.5148865
139	0xbe41fae9	-0.18943371
140	0xbd96b653	-0.07358994
141	0x3d43e66e	0.047827177
142	0xbd961fd4	-0.073302895
143	0xbeceb739	-0.40374163
144	0xbd1d6acd	-0.03843193
145	0xbd608f00	-0.054823875
146	0xbeae4bfc	-0.34042346
147	0xbe36acb7	-0.17839323
148	0xbe892789	-0.26787975
149	0xbdf09db3	-0.11748829
150	0xbe92421b	-0.2856606
151	0xbe6e0fac	-0.23248166
152	0x3cdd0afb	0.026982775
153	0xbe9e8c58	-0.3096645
154	0x3b03fe44	0.0020140568
155	0xbe396923	-0.18106513
156	0xbd1e8403	-0.038700115
157	0x3d6a1b84	0.057155147
158	0xbeb6fbc5	-0.3573896
159	0xbc609762	-0.0137079675
160	0xbd21eb56	-0.039531074
161	0x3d5992ce	0.05311852
162	0xbe95dbe9	-0.2926934
163	0xbe35f5aa	-0.17769495
164	0xbd3d0ea1	-0.04615653
165	0xbe80ba21	-0.25142005
166	0x3c529d90	0.012854949
167	0x3d489f72	0.048980184
168	0xbd34f23a	-0.044176318
169	0xbe8aca98	-0.27107692
170	0xbefd2292	-0.49440438
171	0xbd9746bf	-0.073865406
172	0x3d51b63f	0.051199194
173	0x3be88f03	0.0070971265
174	0x3d277701	0.040884975
175	0xbc907971	-0.017636033
176	0x3d0dfc03	0.034664165
177	0x3c61f07a	0.013790244
178	0xbdb3417b	-0.08752724
179	0xbc3669a2	-0.011133583
180	0xbc48e64f	-0.012261941
181	0xbcc4213b	-0.023941627
182	0x3d0de4af	0.034641918
183	0xbf8794af	-1.059225
184	0x3d47d5a9	0.048787747
185	0xbd64718c	-0.05577235
186	0x3d805dbb	0.06267878
187	0x3dcd1973	0.1001462
188	0x3d8bc66b	0.068249546
189	0x3d851184	0.064974815
190	0xbd8c41d4	-0.06848493
191	0x3ddf0b99	0.10890884
192	0x3d2725c5	0.040807504
193	0xbb11945c	-0.0022213673
194	0xbde20867	-0.11036759
195	0xbd4e77a0	-0.050407052
196	0x3c3a9345	0.011387651
197	0x3cf82fcf	0.030296234
198	0xbd2cb4f0	-0.042164743
199	0xbd5bddae	-0.053678207
200	0x3d1a756d	0.037709642
201	0xbd38b998	-0.04509887
202	0x3c90d6c0	0.017680526
203	0x3dea42ba	0.11438508
204	0x3d89cbe9	0.06728346
205	0x3d1a46a3	0.03766502
206	0x3cac128a	0.021004934
207	0x3d87ccf7	0.06630891
208	0x3ddc234c	0.1074892
209	0x3d09c7e7	0.033637907
210	0xbc298a7e	-0.0103479605
211	0xbd37b487	-0.0448499
212	0xbd7765da	-0.060399868
213	0xbd39aeae	-0.045332603
214	0xbd2edf22	-0.042693265
215	0xbd3c8e46	-0.04603412
216	0x3c889686	0.016673338
217	0x3e20d441	0.15705968
218	0xbe0714f9	-0.13191594
219	0x3ddc3c44	0.10753682
220	0xbcb96db6	-0.022635322
221	0x3dd1f7dd	0.10252354
222	0x3dca174d	0.098677255
223	0x3cf67b4e	0.030088093
224	0xbd681b1e	-0.056666486
225	0xbfcecd7e	-1.6156461
226	0x3d018111	0.031617228
227	0x3dc81c1a	0.09770985
228	0x3dad7476	0.08469479
229	0xbcd6b7e1	-0.026210727
230	0x3d89c5a3	0.06727149
231	0x3d12d0f4	0.035843804
232	0xbd8987f0	-0.06715381
233	0x3c1e6344	0.009667221
234	0x3e251cc0	0.16124249
235	0x3ca716ca	0.020396609
236	0xc00ee790	-2.2328835
237	0x3df1d812	0.1180879
238	0xbfbda22b	-1.4815115
239	0x3c2d3a80	0.0105730295
240	0xbc768c4d	-0.015048099
241	0xbbe36461	-0.0069394563
242	0xbde04dfc	-0.10952374
243	0x3c4c19f1	0.012457357
244	0x3d6451de	0.055742137
245	0x3d62aecb	0.055342477
246	0x3be63eae	0.007026515
247	0xbbb234ff	-0.0054384465
248	0xb9e3fd8d	-0.00043485724
249	0x3e1743cf	0.1477196
250	0xbca42dc5	-0.020041356
251	0x3d7f5a9d	0.062342275
252	0x3ba17a90	0.0049279407
253	0xbc026642	-0.0079589505
254	0xbdac6c68	-0.08419114
255	0x3ca51ce6	0.020155381

layer.4.bias f4 [180]
0	0xbe265925	-0.16244943
1	0xbc8347de	-0.01602548
2	0xbdb6027a	-0.08887191
3	0xbc214de2	-0.009845229
4	0x3d1463a1	0.036227826
5	0x3d82da6b	0.06389316
6	0x3c98e6c3	0.018664723
7	0x3dc6f274	0.09714213
8	0x3db9ff12	0.09081854
9	0xbcc1977a	-0.0236318
10	0xbcdcd73f	-0.026958106
11	0x3d98f460	0.07468486
12	0x3dcfa331	0.10138548
13	0x3d82a302	0.063787475
14	0x3ca3f7ff	0.020015715
15	0x3db20949	0.08693177
16	0x3d097a89	0.033564124
17	0x3dcde934	0.100542456
18	0x3d9fde88	0.07806116
19	0x3c6eaf08	0.014568098
20	0x3ce9adea	0.028525311
21	0x3d810a1c	0.06300756
22	0x3cb78531	0.022402378
23	0x3dd3d40c	0.10343179
24	0x3d024c02	0.031810768
25	0x3dc2e919	0.09517116
26	0x3e03f743	0.12887292
27	0x3dbe01ef	0.092777126
28	0x3dac65f6	0.08417885
29	0xbc287fc7	-0.010284371
30	0x3ccf6398	0.025316045
31	0x3b6cca8b	0.0036131467
32	0x3c14b361	0.00907597
33	0x3d4962db	0.04916654
34	0xbba5296d	-0.0050403387
35	0x3dc73955	0.09727732
36	0x3c18b33d	0.0093200775
37	0x3d9032d2	0.07040943
38	0x3cb1c9d9	0.021702694
39	0x3c534825	0.012895619
40	0xbce7db29	-0.028302746
41	0xbd1a1fd9	-0.03762803
42	0x3ba0c992	0.0049068416
43	0x3d8fd7ed	0.070236064
44	0xbd679210	-0.05653578
45	0x3d0de823	0.03464521
46	0xbc7107b8	-0.014711313
47	0x3b4ee44c	0.003156918
48	0x3c8ce5db	0.017199447
49	0xbd8fd2ee	-0.070226535
50	0xbdc15426	-0.09439878
51	0xbd18f82f	-0.03734606
52	0xbdc306b5	-0.09522764
53	0xbd6583f2	-0.056034036
54	0xbd84bbb5	-0.06481115
55	0xbdbd6edd	-0.09249661
56	0xbd9e05c8	-0.077159464
57	0xbda284e4	-0.07935503
58	0xbe1efe5b	-0.15526716
59	0xbdc9c0fa	-0.098512605
60	0xbdfc2431	-0.123115905
61	0xbd8dbf53	-0.06921258
62	0xbe1cd335	-0.15314944
63	0xbe0ca04f	-0.13733028
64	0xbdfa6a29	-0.1222728
65	0xbe0518f7	-0.12997805
66	0xbe13ab57	-0.1442083
67	0xbe5dbae2	-0.21653321
68	0xbe5a3237	-0.21308218
69	0xbdd793b0	-0.10526216
70	0xbe140ee5	-0.14458807
71	0xbe6c0f01	-0.23052599
72	0xbe5347fd	-0.2063293
73	0xbe2d0e92	-0.1690009
74	0xbe52fc71	-0.20604111
75	0xbdb09ec0	-0.08624029
76	0xbe6fafdf	-0.23406933
77	0xbe633d63	-0.22191386
78	0xbe706509	-0.23476042
79	0xbe71b3cd	-0.23603745
80	0xbe3ed7b0	-0.18636966
81	0xbe26e94e	-0.16299936
82	0xbe78d285	-0.24299057
83	0xbe09f6ea	-0.13473096
84	0xbe5a9e4d	-0.2134945
85	0xbe5a54ed	-0.21321459
86	0xbe662f14	-0.22478896
87	0xbe4b0cbd	-0.19829078
88	0xbdc778d2	-0.097398415
89	0xbdbaac63	-0.091149114
90	0xbdb3c9c0	-0.08778715
91	0xbd9cfc14	-0.076652676
92	0xbd6b157d	-0.05739354
93	0xbe2ea3d7	-0.17054687
94	0xbe07c021	-0.13256885
95	0xbd8d252e	-0.06891857
96	0xbe2dd438	-0.16975486
97	0xbe0307eb	-0.12795989
98	0xbd030c0d	-0.031993914
99	0xbd752874	-0.059853032
100	0xbdc04c78	-0.09389585
101	0xbd1a93b1	-0.037738506
102	0xbd8f900e	-0.07009898
103	0xbd6d060b	-0.05786709
104	0xbd681a2d	-0.05666559
105	0xbd2537e8	-0.04033652
106	0xbd562f2c	-0.05229108
107	0xbc9ef9cc	-0.019406222
108	0x3b61ab61	0.0034434425
109	0xbd7a3066	-0.061081313
110	0x3cd5fc01	0.026121141
111	0xbd02050d	-0.031743098
112	0xbdd3ae02	-0.10335924
113	0x3c542515	0.012948294
114	0xbc957858	-0.018245861
115	0x3b0679ec	0.0020519448
116	0xbc49e728	-0.012323178
117	0xbc990e2c	-0.018683515
118	0xbd6cffa3	-0.05786098
119	0x3d2b9861	0.041893367
120	0x3ce719f0	0.02821061
121	0x3d47fbc9	0.048824105
122	0xbd0723b1	-0.032993022
123	0xbd182645	-0.03714587
124	0x3dac2853	0.08406129
125	0xbc4331a8	-0.011913694
126	0x3dd43915	0.1036245
127	0xbb027790	-0.001990769
128	0x3a8e7908	0.001086981
129	0x3d746f7b	0.05967663
130	0x3de55aae	0.111989364
131	0x3dc52807	0.09626775
132	0x3d462973	0.048379373
133	0x3d0a0ec8	0.033705503
134	0x3de1e101	0.11029244
135	0x3d59228d	0.053011466
136	0x3df14035	0.11779825
137	0x3de83d8c	0.11339864
138	0x3dc63ae9	0.09679205
139	0x3e1aca5d	0.15116258
140	0x3d766188	0.060151607
141	0x3d6325b3	0.055455875
142	0x3da8d00c	0.08242807
143	0x3da339df	0.079700224
144	0x3d984c1f	0.07436394
145	0x3dddc8ef	0.10829341
146	0x3e45ee8f	0.19329284
147	0x3d8b877f	0.06812953
148	0x3e04c8df	0.12967251
149	0x3dfe95e0	0.1243093
150	0x3df21b10	0.11821568
151	0x3e369ca9	0.17833199
152	0x3e2bf2f3	0.16791897
153	0x3e19ebd6	0.1503137
154	0x3e4b15b6	0.19832501
155	0x3dc8a4e3	0.09797075
156	0x3e36414c	0.17798346
157	0x3e3b8c2f	0.18315195
158	0x3e53c2ed	0.20679827
159	0x3dc484f5	0.09595672
160	0x3de58d21	0.11208559
161	0x3deef07d	0.11666963
162	0x3e11f11d	0.14252134
163	0x3e161b54	0.14658862
164	0x3dc89616	0.097942516
165	0x3da88088	0.082276404
166	0x3dc79ca6	0.09746675
167	0x3e124c66	0.14286956
168	0x3e159036	0.14605793
169	0x3e2fe9fc	0.17179102
170	0x3e11f69b	0.14254229
171	0x3d7cae7c	0.06168984
172	0x3ddf0244	0.10889104
173	0x3deac458	0.11463231
174	0x3d3dc1fb	0.046327572
175	0x3cd5e700	0.026111126
176	0xbbba951f	-0.005694046
177	0x3d2132a4	0.039354935
178	0xbc0e6dd6	-0.008693179
179	0x3c6981da	0.01425215
