model(m).pth (torch, 650216 bytes, 3 tensors)

layer.0.weight f4 [180, 720]
00000000: 4406 333c df93 6f3e ac78 54bb 3447 763e
00000010: c08e b739 67ac 823e aa5a 17bd 5951 813e
00000020: e73c 3abc db99 893e 9826 5ebd c2d5 7d3e
00000030: 1622 5abd 4e11 863e b100 3ebd 950b 7d3e
00000040: 5bd7 44bd ae04 823e 64b9 d4bd 418f 893e
00000050: 857d c7bd 3086 823e 7552 d9bd 5f40 8c3e
00000060: e2ec e3bd bafd 713e 743b 17be 2980 803e
00000070: ae9d f7bd 9b8b 693e 1028 13be d463 703e
00000080: a8f3 17be c224 723e 08b2 2bbe f4bf 783e
00000090: e7a1 21be f4e6 693e 261a 40be d06d 883e
000000a0: 43d9 2abe 6669 713e 5190 57be b922 833e
000000b0: cb60 5bbe 1e25 6f3e ce92 5fbe 2f5a 603e
000000c0: 51b0 5ebe d740 7e3e 5ffa 61be 95b3 733e
000000d0: 1c03 36be 0d7f 6a3e e063 5ebe a4ce 843e
000000e0: 035d 5bbe 74af 833e a9ca 49be 7d86 683e
000000f0: 0cc2 3fbe 7aed 6b3e 201f 2fbe 60d5 823e
00000100: 39cb 3abe a534 663e 0ee5 47be 07c1 6f3e
00000110: 9b15 41be 4500 773e 6a96 48be cb58 733e
00000120: 6fd4 39be da97 603e b706 1abe 2273 513e
00000130: 8168 4bbe c25f 793e aff5 38be 3f3e 6e3e
00000140: f1ed 14be 4b5a 593e 1e4f 41be 909f 593e
00000150: 837f 26be 0878 4c3e dc53 16be eb24 5f3e
00000160: 846b 39be 0a67 5b3e 0488 3abe 4371 3c3e
00000170: 19ac 25be 34cf 503e 60a4 3fbe 9210 2d3e
00000180: 3f35 23be c660 223e 4c80 2dbe 5747 3c3e
00000190: 6118 2bbe b088 1e3e 5f88 21be 2331 2b3e
000001a0: 60f0 49be bce3 223e d0d0 48be 37b7 303e
000001b0: 42c0 3ebe edfa 023e b20c 29be b481 063e
000001c0: 57ca 23be 8f0f 013e de6e 3fbe 5376 003e
000001d0: 7f58 4cbe 1e0c 0b3e 5ed4 44be c0de 0b3e
000001e0: 41f0 3dbe 4789 fa3d 5da2 45be f1df d33d
000001f0: 9041 4dbe 4d91 db3d 773a 30be 3a45 f63d
00000200: 1782 38be 8771 b23d fe0a 35be 84da dd3d
00000210: b210 56be c221 b03d 0bdb 3abe fda2 ab3d
00000220: a12a 36be 7faa c33d e4d8 51be 8e5f 973d
00000230: ad41 57be 9bff 573d d737 48be 5b4f 693d
00000240: 5ca9 60be 4a39 7d3d 1670 60be 2070 f33c
00000250: 2b79 57be 86ed 2f3d 739d 66be 9822 fd3c
00000260: 7b47 69be 4843 8c3c bf68 52be 45c9 be3b
00000270: 7bef 66be ef1a 043c d272 65be fe89 473a
00000280: 968c 61be 4b9a 8dbc 7627 58be 96e9 20bd
00000290: 703a 6cbe e16a 29bd d689 56be 5042 85bd
000002a0: 0373 56be 0174 87bd cdf1 5fbe c7c2 86bd
000002b0: dfe6 6bbe 97f4 b1bd cb00 61be 6fa6 d2bd
000002c0: b198 70be 2aaa f5bd f1b2 64be 7c5d 00be
000002d0: 2245 72be 8746 d6bd d9be 67be 1295 f4bd
000002e0: ffba 5abe 1746 15be e87e 61be ca49 08be
000002f0: f8a7 72be d4ac 26be b772 71be 4380 27be
00000300: 73d7 66be 72cb 1cbe a575 57be 5518 2ebe
00000310: 82db 6dbe e21e 1bbe 699c 6bbe b742 0cbe
00000320: 639d 6ebe ee28 2bbe da8a 6bbe 0e25 0abe
00000330: f385 55be 8589 0bbe 82f0 69be ce37 11be
00000340: c662 4dbe 40e2 36be 93f5 5ebe b50b 0abe
00000350: 08b4 5fbe bd8c 13be 7313 69be f233 19be
00000360: ba7a 53be 98de 0cbe 1e2b 54be b8e5 11be
00000370: e571 66be b40b 2dbe 54b2 59be f50b 10be
00000380: 8bdb 4dbe dd0c 1dbe 41f3 60be 8ac9 04be
00000390: 9ee4 5bbe 1aea 29be 244d 69be 700b 0dbe
000003a0: 475a 62be 2a3b 31be 6855 62be 9f23 03be
000003b0: 37fb 61be c8a7 32be 7d68 6fbe 8d01 24be
000003c0: 3dce 50be b369 05be 0f0c 58be 6a66 1cbe
000003d0: 783f 67be 30b6 23be a8e5 5abe ce8b 20be
000003e0: be6d 73be e8fe 22be fc15 4fbe 5a64 fbbd
000003f0: 9edd 67be 3bae 1cbe 1d63 63be 6f70 19be
0.010926787 0.23396252 -0.003242056 0.240506 0.00035010837 0.25522158 -0.0369517 0.25257376
-0.011367059 0.26875195 -0.054236025 0.24788573 -0.053255163 0.26185077 -0.046387378 0.2471145
-0.04805694 0.25394195 -0.10386923 0.26867107 -0.09740738 0.25493002 -0.106114306 0.2739286
-0.11129166 0.23631945 -0.14768773 0.25097778 -0.12090622 0.22807162 -0.14370751 0.23475581
-0.14839041 0.23646834 -0.16767132 0.24291974 -0.15784417 0.22842008 -0.18759975 0.2664628
-0.16684441 0.23575363 -0.21051146 0.2561243 -0.21423642 0.23354003 -0.21833345 0.21909402
-0.21746947 0.24829422 -0.22068165 0.23798974 -0.17774624 0.22900029 -0.21717787 0.25938904
-0.214222 0.25719798 -0.19706215 0.22707553 -0.18726367 0.23039809 -0.17101717 0.25553417
-0.18241586 0.2248102 -0.19520971 0.23413478 -0.18855898 0.24121197 -0.19588628 0.2376434
-0.18147443 0.21932927 -0.15041624 0.20454076 -0.19864084 0.24352935 -0.18062471 0.23265933
-0.14543892 0.2122585 -0.18877837 0.21252275 -0.1625958 0.19967663 -0.14680427 0.21791427
-0.1810742 0.21426025 -0.18215948 0.18402581 -0.16178931 0.20391542 -0.18715048 0.16900852
-0.1593828 0.15857229 -0.16943473 0.18386589 -0.16708519 0.1548183 -0.15774678 0.16717963
-0.19720602 0.15907186 -0.19610906 0.17257391 -0.18628028 0.12791033 -0.16508749 0.13135415
-0.15995155 0.12603591 -0.18694636 0.12545137 -0.19955634 0.13578841 -0.19221637 0.13659191
-0.18548681 0.12233215 -0.19300218 0.10345448 -0.20044541 0.10721073 -0.17209803 0.12024923
-0.18018375 0.0871306 -0.17679974 0.10832694 -0.20904806 0.08600189 -0.18247621 0.08380697
-0.17789699 0.09554004 -0.20492893 0.073912725 -0.21021147 0.052734 -0.19552551 0.056960445
-0.21939605 0.061822213 -0.21917757 0.029716551 -0.21042316 0.04295113 -0.22521 0.030900285
-0.22781174 0.017121926 -0.2054777 0.005822333 -0.22552292 0.008063062 -0.22407082 0.000761181
-0.22026286 -0.017285487 -0.21108803 -0.039285265 -0.23069167 -0.041361693 -0.20951018 -0.06506789
-0.20942311 -0.06613923 -0.21869583 -0.065801196 -0.23037289 -0.0868923 -0.21972959 -0.10285651
-0.23495747 -0.11995347 -0.22333886 -0.12535661 -0.23659185 -0.10462671 -0.22631396 -0.119424954
-0.21360396 -0.14577518 -0.22021067 -0.13309398 -0.23696887 -0.16276866 -0.23578916 -0.16357522
-0.22543125 -0.15311983 -0.21040972 -0.1700147 -0.23228267 -0.151485 -0.23008884 -0.13697325
-0.23302226 -0.16714832 -0.23002186 -0.13490698 -0.20851879 -0.13626678 -0.22845653 -0.14181444
-0.2005721 -0.17859745 -0.21773367 -0.13481028 -0.2184602 -0.14409156 -0.22761326 -0.14961222
-0.20652285 -0.13756788 -0.20719573 -0.14247787 -0.22504385 -0.16898996 -0.21259433 -0.14067061
-0.2010328 -0.15336938 -0.21967794 -0.12967506 -0.2147393 -0.16593209 -0.22783333 -0.13773894
-0.2210475 -0.17307726 -0.22102892 -0.12806557 -0.22068487 -0.17446816 -0.23379703 -0.16016217
-0.20391174 -0.13028602 -0.2109835 -0.15273443 -0.22582805 -0.15987468 -0.2137667 -0.15678331
-0.23772332 -0.15917552 -0.2022323 -0.12275 -0.22643134 -0.15300839 -0.22205777 -0.14984296

layer.0.bias f4 [180]
00000000: fe1b 45bd a1d2 c93c 5f7c 893c 379c 2f3c
00000010: 7971 d43c 69a4 243d 5d4f 81bc d8bd 27bd
00000020: 43bc cbbc 7667 783c b870 46bc fce7 913d
00000030: 48b4 c53b 8989 e8bc cf9b 06bd 26ac 393c
00000040: bf30 ddbc 4d3c 503b fcc6 243d 5211 143d
00000050: 0b6f 17bd 692a 6cbc 9186 263d effc 77bc
00000060: 1b69 303d bf10 d73c da20 d0bc 826f 5d3b
00000070: 0d30 8ebc 8f33 c13c 33bc 183d effc 0dbd
00000080: a1d6 1ebc d0f0 c93b e4be 7cbc bc7e b1bc
00000090: 1603 123a 2b0c 083d 0122 c63c 04f5 ac3c
000000a0: 09fa 833a c044 f4bc 7d8c a63c 2f04 d9bc
000000b0: e467 f7bb 32d6 40bc d3e6 bebc 3be5 3dbc
000000c0: f864 0bbd 8370 dbbc b87b fc3c f957 b7bc
000000d0: 112d 853c ea6c 13bc b20a a7bc 0ba3 c9bc
000000e0: b420 f8bc 8406 013d 1ea9 7a3c 6d6a bd3c
000000f0: 77db 91bb a04f a8bc 0a96 7dbb b611 603b
00000100: e38e 8c3c b17f d23c d1b1 51bd 976c c53b
00000110: d9d3 a03c 61a6 38bd 7a07 873c f498 c1bb
00000120: 73b6 31bb 5502 4dbc 0816 cdbc 2099 2ebc
00000130: 10f5 553d 00bf 0cbd 6d0d 223d e00a 23bd
00000140: 80cb babc ecc1 113d 3e52 68bb 832b 00bd
00000150: 9cfa 08bd 49e7 05bd 17b6 8fbc 4dbc 00bd
00000160: 3a97 6fbd 8d6a 0e3d 0f1b 30bc 2ff8 473d
00000170: bce0 30bd 7cc4 d23c 10bb 1bbc 5063 40bb
00000180: 9ac5 8c3d f489 703c 7927 f4bc 1ec1 d33c
00000190: 240e 28bd 546e 053d 40da 78bd a366 e93b
000001a0: 4da9 fd3c 8e57 b33a 5bc2 95bc 9971 e73c
000001b0: 3923 493c 64a8 0abd 9f3e 0cbd db7f a03b
000001c0: 59ed 00bc 15ff d4bc 1e5c d53c 8ea6 c1bc
000001d0: 5502 a1bc c55c 4dbc 18bb 24bd fc62 b7bb
000001e0: 0bab 823b 5c2f dcba bdb0 ebbb f41b 8c3c
000001f0: ed86 0dbd 88eb c03c 1f5b 3abd 786f 253c
00000200: 0e01 42bc 2af7 ab3c 7a35 3ebd 831f afbc
00000210: b951 c0bb b7fd 303d a101 633c df64 d43c
00000220: 7940 5b3c 2854 86ba 3ceb 773d 2507 233d
00000230: b85c 4f3d 7ebb f3bc dfca 123b fafc 00bc
00000240: 227c dabc 0678 d23c 5bd9 883d 07e7 233c
00000250: 7663 0b3d ea0f 363c e7d3 f63c 7eb9 26bd
00000260: e8dd 83bc 58aa d6bc b780 6f3c c010 ea3b
00000270: e0b2 b03c c4ca 6cbc 3ff6 b439 1f19 f63c
00000280: bfe9 0dbd 650d eebc fe22 f63c f97e a3bc
00000290: 7344 523d 8f6e fd3a e947 5d3d c1a2 88bc
000002a0: fc53 223d 6c88 0ebd b4ce 253d 1814 16bd
000002b0: c0cf fabc 70a7 abbb 7abf 783c 91dc 13bd
000002c0: a0c8 0f3c 0fe4 873c 1cf4 f73c 8857 213c
-0.0481224 0.024636569 0.016782938 0.010718397 0.025933014 0.040195856 -0.015784914 -0.040952533
-0.024870044 0.015161386 -0.012111835 0.07124326 0.006033454 -0.028385894 -0.032863434 0.011332547
-0.027000783 0.0031774223 0.04022883 0.03614933 -0.036971133 -0.014414408 0.040655676 -0.015135988
0.043068986 0.026253102 -0.02540629 0.0033788388 -0.017356897 0.023584155 0.037288856 -0.034665044
-0.009694726 0.0061627403 -0.015426371 -0.021666877 0.0005569918 0.03321473 0.024186136 0.021112926
0.0010069023 -0.029817939 0.020330662 -0.026491253 -0.0075502265 -0.011769818 -0.023303425 -0.011590297
-0.03403184 -0.026787048 0.030820712 -0.022380816 0.01625684 -0.008998135 -0.020390842 -0.024613878
-0.030289032 0.031500354 0.01529911 0.023122037 -0.004451211 -0.02054578 -0.0038694167 0.0034190244
0.017157977 0.025695654 -0.05119497 0.006024908 0.019632267 -0.045080546 0.016483057 -0.005908126
-0.0027116805 -0.012512763 -0.02503492 -0.010656625 0.052235663 -0.03436184 0.039563585 -0.039805293
-0.022802114 0.03558533 -0.003544941 -0.031291496 -0.033442125 -0.032691274 -0.017542882 -0.031429578
-0.05849383 0.034769583 -0.010748639 0.04882067 -0.043183073 0.025728457 -0.009505048 -0.002935607
0.06873627 0.014681328 -0.029803978 0.025848921 -0.04102911 0.03257592 -0.060755014 0.007122831
0.030964518 0.001368271 -0.018281152 0.02825241 0.012276464 -0.033851996 -0.034239408 0.004898054
-0.007869088 -0.026000539 0.026044901 -0.02363899 -0.019654432 -0.012534325 -0.04021749 -0.0055965167
0.003987675 -0.0016798782 -0.0071926997 0.017103173 -0.034552503 0.02354981 -0.045497056 0.010097377
-0.011841072 0.02099188 -0.046437718 -0.02137733 -0.005869117 0.04321071 0.013855369 0.025927005
0.013382071 -0.0010248469 0.06052707 0.039801735 0.050625533 -0.02975249 0.0022398753 -0.007872814
-0.02667052 0.025691997 0.06682082 0.010003812 0.0340304 0.011112193 0.03013034 -0.040704243
-0.016097024 -0.026204273 0.01461809 0.00714311 0.02156967 -0.01445264 0.00034515743 0.030041276
-0.034646746 -0.029059121 0.030045982 -0.019958006 0.05133481 0.0019335317 0.054023657 -0.01667917
0.039630875 -0.03479807 0.04048033 -0.036640257 -0.030616641 -0.005238466 0.01518237 -0.03609902
0.00877586 0.016588239 0.030267768 0.009847529

layer.2.weight f4 [180, 180]
00000000: 164e 6cbe 4736 9fbe 4722 45be 2d40 83be
00000010: 98c9 a1be 479d 95be 4259 9abe 4292 43be
00000020: 41eb 74be 6788 90be f01f 8dbe dbdc 8abe
00000030: a5b5 75be 768b 72be 7ed6 78be a7ee 2cbe
00000040: 738d 6dbe fca0 c4be 8723 0ebe 556e 94be
00000050: 21fe 15be 7e82 5dbe 6fa9 94be d1fa 91be
00000060: c17d 28be d075 9ebe 8d27 48be 7f8f 94be
00000070: 3f65 8abe 3b6e 22be ccc8 29be 5f08 1abe
00000080: eb29 82be 3fa4 96be dbf0 73be ed33 9bbe
00000090: 85fd 2cbe afd6 2fbe 03ff 51be e7a9 6abe
000000a0: b6ef 8dbe 6304 60be 3abf 8cbe e1aa 91be
000000b0: 013e 90be e77f 8ebe e213 41be 6b44 91be
000000c0: 3ba5 87be dd2d 4fbe f36f 75be b298 89be
000000d0: b6d3 40be 2d7a 7abe 0f27 8cbe 5486 9dbe
000000e0: cfc4 59be 5eb6 97be 7581 55be 390f 65be
000000f0: ab77 7ebe 9272 5dbe 3612 7ebe 641a 29be
00000100: 796c 95be 4b69 50be d04c 80be 4276 15be
00000110: edd2 67be 89f3 87be 2641 93be 0314 22be
00000120: d5b8 80be db80 62be 57e1 94be f915 7bbe
00000130: 3144 8bbe 2237 37be 852f 4abe 2c2c 71be
00000140: f65c 8cbe a1af 5ebe d6b8 3fbe 2720 9abe
00000150: e1ad 79be df7f 64be 57dc 03bd 150d 94be
00000160: d795 20be 7f13 6fbe 53e8 79be c541 8abe
00000170: 66d7 84be 8835 23be 6e32 50be 9b6a 94be
00000180: cdcf 98be 7970 43be 94c3 70be f2f2 8abe
00000190: 4962 73be 41c2 5dbe 1d10 52be 627f 93be
000001a0: 1572 97be 1c9e 9abe b3d9 8fbe e423 66be
000001b0: 4d80 70be 8dac 94be fe75 44be a269 8bbe
000001c0: 6160 51be 8814 90be f155 6cbe 1d37 43be
000001d0: b390 61be 1b6c 6bbe e5a4 67be 77e1 85be
000001e0: 584d 8dbe d5e3 a4be f902 90be 6de7 33be
000001f0: ad3b 98be f803 2abe 56eb 75be c7ac 31be
00000200: 5cdc 7bbe c590 89be dc8b 4abe 8f5f 8fbe
00000210: 5752 4abe 96f6 4fbe 96fa 82be 82bd 38be
00000220: fa7b 68be c541 94be 6aa5 5fbe 0e2e 4fbe
00000230: 4354 16be 628b 54be c601 49be f042 94be
00000240: fad0 41be 4efd 7fbe 0839 18be 28fc 43be
00000250: ae33 96be 87ad 6ebe dfba 38be 78a0 87be
00000260: 59e8 37be f3d7 91be 697f 52be 5f01 3bbe
00000270: 4578 a0be 4acf 40be 40ea 62be 9cbb 57be
00000280: 96bf 83be 0fde 8fbe 4bc8 44be 9d6f 81be
00000290: b74e 9ebe d8fc 8bbe 6f62 24be 2131 61be
000002a0: 63ce 8dbe befc 5bbe 4d1e 65be cf97 4abe
000002b0: 2d98 91be 9f5e 67be 9db8 4ebe 1ebf 89be
000002c0: 293c 93be cb6b 98be 4d9a 8ebe da4a 72be
000002d0: 1902 6e3d d78b 16be e06f 64bf d317 473d
000002e0: 905f ac3d 7a1f 42be 0276 883d 5a61 ce3d
000002f0: 92c7 e73d d198 69be b25e 8abf 3e48 66bd
00000300: e2ae ff3d 8ece a93d 7273 643d 9e27 343c
00000310: 2c09 e13d f5e5 85bf bd01 2c3e 6f6d b83c
00000320: 4dce ab3e c895 ae3d d908 7cbd 154a 3abe
00000330: 70b9 e3bc 4907 82bd 7bcd a43d d5ce 4bbc
00000340: fb7c 6bba 81e6 7ebd 291a 7b3e 280c 8cbf
00000350: d021 8c3d e7ea a63a cd6c 4c3d 7863 073e
00000360: 1204 623d 27dd adbc 401b 89bd 9576 84bf
00000370: c7ef 723e bd9b ef3c cc07 4b3b 8c04 7e3c
00000380: 8c3c 213e e7d5 29bd 02a2 1f3e 008b d1bc
00000390: 22f4 20bb 8d93 303d 3e31 be3d 7eb6 4e3e
000003a0: a890 933d fc80 64bf 2489 0a3e 6b5c 8bbd
000003b0: cce5 10be bf84 bcbc bfce bb3d 4260 60bf
000003c0: 05fe 0bba 146f ba3d 0382 cd3d 9d15 113e
000003d0: eea6 2f3e 5e8d 403d 57ad 4abd ad34 2dbd
000003e0: 6fd7 54bc 2b21 80bf 00af 6bbc ef35 073e
000003f0: 741a 453e 2a1b 05be c09a 943e b1cb f13c
-0.23076662 -0.31096098 -0.19251357 -0.256349 -0.31599116 -0.29221556 -0.30146223 -0.19098762
-0.23917867 -0.28229067 -0.2756343 -0.27121624 -0.23995073 -0.23686013 -0.24300572 -0.16887914
-0.2319849 -0.3840407 -0.1388074 -0.28990427 -0.14647724 -0.2163181 -0.29035518 -0.2851167
-0.16454221 -0.3094926 -0.19546337 -0.2901573 -0.2703037 -0.15862362 -0.16580504 -0.15042256
-0.25422606 -0.29422185 -0.23822348 -0.30313054 -0.16893585 -0.17171739 -0.20507436 -0.22916375
-0.27721947 -0.21876673 -0.27489644 -0.28450683 -0.28172305 -0.27831957 -0.18855241 -0.2837251
-0.26493248 -0.20232339 -0.23968486 -0.2687431 -0.18830761 -0.24460669 -0.2737355 -0.30766547
-0.21266483 -0.29631323 -0.20850165 -0.22369088 -0.24850337 -0.21625736 -0.24811634 -0.16513973
-0.2918432 -0.20352666 -0.25058603 -0.14595893 -0.22639056 -0.2655299 -0.28760642 -0.15827946
-0.25141016 -0.22119467 -0.2907817 -0.245201 -0.27200463 -0.17892125 -0.1974469 -0.23552006
-0.27414674 -0.21746685 -0.18722853 -0.30102655 -0.24382736 -0.22314404 -0.032192554 -0.2891623
-0.1568216 -0.23347281 -0.24405031 -0.27003303 -0.25945586 -0.1593839 -0.20331737 -0.28987584
-0.2984604 -0.19085874 -0.23512107 -0.27138478 -0.23767962 -0.21656133 -0.20513959 -0.28808123
-0.29579225 -0.30198753 -0.2809578 -0.22474629 -0.23486443 -0.29037896 -0.19185635 -0.2722903
-0.20446922 -0.28140664 -0.23079659 -0.19063993 -0.22027855 -0.22990458 -0.22621496 -0.2614858
-0.2759807 -0.32205072 -0.28127268 -0.1756875 -0.2973303 -0.16603076 -0.24015555 -0.17351066
-0.24595779 -0.26868263 -0.19779915 -0.28002593 -0.19757973 -0.20308909 -0.25581807 -0.18041041
-0.22703543 -0.28956428 -0.21840444 -0.20232412 -0.14680581 -0.20756295 -0.19629583 -0.2895732
-0.18927374 -0.24998972 -0.14865506 -0.19139159 -0.29336303 -0.23308383 -0.18040036 -0.26489615
-0.17959727 -0.2848507 -0.20556416 -0.18262242 -0.31341758 -0.18829075 -0.22159672 -0.21067661
-0.25732106 -0.28099105 -0.1921703 -0.25280467 -0.3091943 -0.27341342 -0.16053174 -0.21991397
-0.27696523 -0.21483132 -0.2237484 -0.19784473 -0.28436413 -0.22594689 -0.20187612 -0.26903623
-0.28756836 -0.2976974 -0.27852097 -0.23661366 0.05810747 -0.14701782 -0.8923321 0.048606705
0.084166646 -0.1895732 0.06663133 0.10077162 0.11317362 -0.22812201 -1.0810149 -0.05622124
0.12484528 0.0829135 0.05577416 0.010995774 0.109880775 -1.0460802 0.16797538 0.02251312
0.33555833 0.08524662 -0.061531875 -0.18192323 -0.027798384 -0.06349046 0.08047005 -0.012439449
-0.0008983162 -0.062231544 0.24521698 -1.094121 0.06842387 0.0012734801 0.049908448 0.13221538
0.055179663 -0.021223618 -0.06694651 -1.0348688 0.2372428 0.029249066 0.003097999 0.015504014
0.15745753 -0.04146376 0.15589145 -0.025578976 -0.0024559577 0.043109465 0.09286736 0.20186803
0.07205325 -0.89259315 0.13528877 -0.06804737 -0.1415016 -0.023012517 0.09170293 -0.8764688
-0.0005340281 0.09103218 0.100345634 0.14168401 0.17153522 0.04700982 -0.049481716 -0.042286564
-0.0129908165 -1.0010122 -0.014384985 0.13204168 0.19248372 -0.12998644 0.29024315 0.029516073
