model(s).pth (torch, 649259 bytes, 2 tensors)

layer.1.weight f4 [180, 720]
000000 d3 be ed bb 72 a2 82 3e e7 a2 69 bc 36 cf 60 3e
       -0.007255414 0.2551456 -0.01426003 0.21954045
000010 74 6f 54 bc e6 d2 84 3e d1 46 22 bd 44 c4 6b 3e
       -0.012966026 0.25942153 -0.039618317 0.23024088
000020 ae 8c 50 bd b3 40 73 3e 1d b6 2d bd b2 20 7c 3e
       -0.050915413 0.2375515 -0.042410005 0.24621847
000030 26 ea ec bc c2 10 63 3e 29 61 e9 bc b8 de 60 3e
       -0.028920244 0.22174361 -0.028488712 0.2195996
000040 fe 61 40 bd ca 05 63 3e a9 8f b6 bc 03 2b 71 3e
       -0.046968453 0.22170177 -0.0222853 0.23551564
000050 a8 50 ea bc fa 84 6c 3e 99 6c 41 bd ea 5c 85 3e
       -0.028602913 0.23097602 -0.047222707 0.2604745
000060 4a 1a 4e bd 05 e9 87 3e 00 d9 64 bd 62 31 6f 3e
       -0.05031804 0.26544967 -0.05587101 0.23358682
000070 90 c4 cc bc 6f f1 8a 3e f8 f5 9b bc a4 7e 7e 3e
       -0.024996072 0.27137324 -0.019038185 0.24852997
000080 f1 62 1e bd 91 4e 64 3e f8 e2 6a bc de ee 6a 3e
       -0.038668577 0.22295596 -0.01433634 0.22942683
000090 4f 32 24 bd 7f 4b 78 3e fb 40 16 bd 11 51 83 3e
       -0.04008704 0.2424755 -0.036683064 0.25647786
0000a0 1b 66 09 bd a0 c7 83 3e ed f8 00 bd 06 26 61 3e
       -0.03354464 0.2573824 -0.031487394 0.21987161
0000b0 93 e3 bf bc b5 ef 89 3e ae 59 08 bd 3d 5f 73 3e
       -0.023423946 0.26940694 -0.03328865 0.237668
0000c0 b9 a8 89 bb 76 45 88 3e a9 08 54 bc 28 6a 69 3e
       -0.0042010215 0.26615494 -0.012941518 0.22794402
0000d0 d4 20 ac 3b 14 77 7a 3e 86 d2 e8 bc af 51 82 3e
       0.005252937 0.24459487 -0.028420698 0.25452945
0000e0 68 01 84 3b 09 c4 83 3e 19 97 06 bd 60 e0 6e 3e
       0.004028488 0.257355 -0.03285894 0.2332778
0000f0 cb a3 8a bc 2b 10 72 3e 0b e9 e8 bc 50 19 59 3e
       -0.016923806 0.2363898 -0.028431436 0.21201062
000100 4b 40 e0 bc 99 e1 65 3e 1b c5 97 3b dd 91 50 3e
       -0.027374407 0.2244934 0.004631651 0.20368142
000110 34 6e 1c 3c 92 dd 21 3e ff f6 c6 bb 5b 21 31 3e
       0.009547759 0.15807179 -0.0060719247 0.1729788
000120 54 88 8e bc 10 93 3a 3e 9c 6f dd bc 35 ab 1f 3e
       -0.01739899 0.18220162 -0.027030759 0.15592654
000130 8a f9 db bc dc 88 ee 3d 1e c5 d4 bc ac d5 dc 3d
       -0.026852388 0.116471976 -0.025972899 0.10782942
000140 17 d1 9f bc 04 47 b4 3d 8d c0 bb bc bf f6 a3 3d
       -0.019508881 0.08802608 -0.022918964 0.080060475
000150 b0 40 fa bb 8e cf f9 3c 60 74 0f bd b6 53 1d 3d
       -0.007637106 0.030494478 -0.035023093 0.03840991
000160 cf 31 96 bc 9e c2 b7 39 5b 51 13 bd b3 75 13 bd
       -0.018334297 0.0003504948 -0.03596626 -0.03600092
000170 22 74 fa bb 2f 07 01 bd 07 e7 d5 bb e1 d5 58 bd
       -0.0076432386 -0.03150099 -0.0065277847 -0.052938346
000180 9f 2e 42 bd 3d 9e fe bd 45 d4 38 bd 94 da 2d be
       -0.047407743 -0.12432525 -0.04512431 -0.16977912
000190 49 a1 1a bd ac 6c 0c be 2d 53 b8 bc 0b a9 21 be
       -0.03775147 -0.1371333 -0.022500599 -0.15787141
0001a0 69 26 8a bd 2b c2 44 be ed 6b 33 bd 82 88 62 be
       -0.067456074 -0.19214694 -0.043804098 -0.22122386
0001b0 4c f1 63 bd 85 2d 8f be d5 b1 db bc 66 3d 89 be
       -0.05565004 -0.27964416 -0.026818195 -0.26804656
0001c0 eb 44 3c bd dc f4 83 be e4 7e 2a bd 52 0e 9a be
       -0.045964163 -0.2577275 -0.04162492 -0.3008905
0001d0 0d 29 21 bd 55 05 9e be a6 25 8a bd 40 c4 9d be
       -0.03934579 -0.30863443 -0.06745462 -0.3081379
0001e0 8b 45 af bd 85 64 b1 be 83 7c 9b bd e8 06 9f be
       -0.08558186 -0.34647003 -0.07592108 -0.31059957
0001f0 e4 63 c9 bd 33 7c be be 76 cd ea bd f4 9a 9e be
       -0.09833506 -0.3720413 -0.1146497 -0.30977595
000200 d0 85 a3 bd ad ba aa be 02 46 ef bd 53 df a3 be
       -0.07984507 -0.33345547 -0.11683275 -0.3200632
000210 39 82 a3 bd d0 b7 bb be d7 47 e7 bd d4 b2 a7 be
       -0.079838224 -0.36663675 -0.11292999 -0.32753623
000220 54 fa 06 be 4c 93 b6 be a1 98 f6 bd a9 6c a9 be
       -0.1318143 -0.35659254 -0.120408304 -0.33090714
000230 84 0d 02 be 72 84 a4 be 53 1f ed bd 2c 6e 95 be
       -0.12700468 -0.32132298 -0.1157824 -0.29185617
000240 73 ca ff bd 88 b6 96 be 2e ec dc bd 3a 7f a4 be
       -0.12489786 -0.29436135 -0.10787235 -0.32128316
000250 fc 11 f9 bd de 85 92 be 5e a0 f0 bd 3f 76 9a be
       -0.12161633 -0.28617758 -0.117493376 -0.3016834
000260 4f 21 f3 bd 91 f2 8c be 97 14 03 be 97 24 80 be
       -0.118715875 -0.27528813 -0.12800823 -0.25027916
000270 12 7a 1e be 74 5a 8b be 18 7f 25 be a4 e0 79 be
       -0.15476254 -0.27217448 -0.16161764 -0.244021
000280 35 4b 26 be 1d 17 77 be 60 73 0d be b7 ce 65 be
       -0.16239627 -0.24129911 -0.13813543 -0.22442137
000290 f0 a5 12 be 19 7f 7d be da f8 2e be 0d 44 62 be
       -0.14321113 -0.24755515 -0.17087117 -0.22096272
0002a0 19 c8 11 be 1f 11 83 be 30 f9 2a be ef 77 6c be
       -0.14236487 -0.25599 -0.1669662 -0.23092626
0002b0 21 d5 31 be 1b 30 68 be f4 fd 42 be e4 5f 85 be
       -0.17366458 -0.22674601 -0.19042188 -0.2604972
0002c0 35 c2 2b be 6e e2 74 be c8 a2 54 be 6c a3 68 be
       -0.16773303 -0.23914501 -0.20765221 -0.2271859
0002d0 38 a2 25 be b6 31 64 be 3a b2 3d be 75 e9 75 be
       -0.16175163 -0.22284588 -0.1852502 -0.24014838
0002e0 b7 d6 3d be 39 d0 70 be 7e 48 49 be e6 f2 6d be
       -0.18538938 -0.2351693 -0.1965656 -0.2323719
0002f0 45 1e 37 be 66 fb 54 be af 8d 3b be b1 aa 5f be
       -0.1788264 -0.20799026 -0.18315767 -0.21842457
000300 4e ca 54 be f6 95 6e be a2 4f 41 be e0 0c 71 be
       -0.20780298 -0.23299393 -0.18878034 -0.23540068
000310 7b d2 55 be 66 eb 6c be db a8 3e be ff 0d 6b be
       -0.20881073 -0.23136672 -0.18619101 -0.22954558
000320 22 24 59 be f0 b1 70 be a5 36 68 be a1 b2 69 be
       -0.2120519 -0.23505378 -0.22677095 -0.22822048
000330 4f 89 6a be b4 41 6d be 56 10 4a be 34 52 63 be
       -0.22903942 -0.23169595 -0.19732794 -0.22199327
000340 33 5c 64 be f1 b1 4c be b8 56 70 be 96 d2 5c be
       -0.22300796 -0.19989754 -0.2347058 -0.21564707
000350 d7 3b 70 be be 9c 6a be 2d 8d 44 be 39 04 52 be
       -0.23460327 -0.22911355 -0.1919448 -0.20509423
000360 a4 29 55 be a8 da 50 be ab a3 63 be b5 b4 57 be
       -0.20816666 -0.2039591 -0.22230403 -0.21065028
000370 12 85 65 be 5f 58 62 be 07 c9 61 be fc a5 66 be
       -0.22414044 -0.22104023 -0.22049342 -0.22524256
000380 13 1b 73 be 54 3e 44 be 70 ed 53 be cb e8 62 be
       -0.23740797 -0.19164401 -0.20696044 -0.22159116
000390 e3 f7 73 be 41 1a 3e be bd 35 5f be 4e 99 57 be
       -0.2382503 -0.18564703 -0.21797843 -0.21054575
0003a0 d9 64 69 be 83 b8 3f be 6f 3b 6b be f9 4c 44 be
       -0.22792377 -0.1872273 -0.22971891 -0.19169988
0003b0 5b 2c 73 be 99 ec 59 be 5a b7 69 be 59 6b 4c be
       -0.23747389 -0.21281661 -0.2282385 -0.19962825
0003c0 53 9e 76 be 6f f0 43 be c4 82 4a be 86 8b 55 be
       -0.24083833 -0.19134687 -0.19776446 -0.20854005
0003d0 a4 b6 66 be 94 60 59 be 52 85 44 be 0f 56 45 be
       -0.2253061 -0.21228248 -0.19191483 -0.1927111
0003e0 07 d3 73 be 82 8d 54 be f3 93 6c be 54 c4 56 be
       -0.2381097 -0.20757106 -0.23103313 -0.2097333
0003f0 09 2f 55 be 73 28 34 be 32 7b 5f be 8e 1a 44 be
       -0.20818724 -0.17593555 -0.21824339 -0.19150755

layer.3.weight f4 [180, 180]
000000 1b 41 c4 bd f1 fb 0c be 8c 72 3b be b3 57 29 be
       -0.095827304 -0.13767983 -0.18305415 -0.16537361
000010 ba b8 d8 bd 85 2e 29 bd 13 2d 1c bd 64 21 e1 bd
       -0.10582109 -0.04130413 -0.038128924 -0.10992697
000020 95 24 21 be 7b e2 ad bd d6 67 e0 bd 40 48 20 be
       -0.15736611 -0.08490463 -0.10957305 -0.15652561
000030 c8 56 7e bd 86 45 0a be 51 33 25 be 10 82 b2 bd
       -0.06209448 -0.13503084 -0.16132857 -0.08716214
000040 89 f6 bd bd 52 c6 95 be 90 cc 0d be 13 6e 86 bd
       -0.092755385 -0.2925287 -0.13847566 -0.06563964
000050 d9 ed e0 be fd d7 80 bd 65 7a b7 bd c8 2f 22 be
       -0.43931463 -0.062911965 -0.08958892 -0.1583854
000060 dc e1 12 be 92 4e df bd 14 58 49 be 63 cc 30 bf
       -0.14343971 -0.10903658 -0.19662505 -0.6906187
000070 21 76 c7 be 06 d8 53 be 0a 3e 25 be 75 6f 00 be
       -0.38957313 -0.20687875 -0.16136947 -0.12542517
000080 e4 11 2c be 6c 7c ed be 72 d0 aa bd 4e 75 05 be
       -0.168037 -0.4638399 -0.08340539 -0.1303303
000090 a9 a7 1d be 60 e3 a5 3c 38 aa 44 be 9c 57 ab bd
       -0.15395989 0.020250022 -0.19205558 -0.083663195
0000a0 e2 17 41 be 1d 8a 9f bd 39 03 8f be 14 e9 5e bc
       -0.18856767 -0.07790015 -0.27932146 -0.013605375
0000b0 e0 43 25 be b8 f7 3a be 2c 68 75 bd 8e 87 2f be
       -0.16139174 -0.1825856 -0.0599138 -0.17141554
0000c0 f7 2c 38 be ac fe 26 be 6c b3 2a be 29 01 18 be
       -0.17985903 -0.16308087 -0.16670007 -0.14844193
0000d0 13 cd 88 be 9c 8d 71 be 37 b5 0a be 2d 65 de bd
       -0.2671896 -0.23589176 -0.1354569 -0.108591415
0000e0 d5 fb 05 be 13 29 d7 bd f6 e0 d7 bd 24 70 f0 bd
       -0.13084348 -0.10505881 -0.10540955 -0.11740139
0000f0 f1 2b 36 be ef 34 13 be e6 b9 0a bf 17 27 38 be
       -0.177902 -0.14375661 -0.5418991 -0.17983662
000100 6a 12 35 bd 9c fe 14 be aa 5f 2e be 07 c5 27 bd
       -0.044207014 -0.14550251 -0.1702868 -0.040959384
000110 62 97 d0 bd db c9 eb bd 96 01 69 bd 1a 0a de bd
       -0.10185124 -0.1151311 -0.056886278 -0.108417705
000120 bc 46 31 be 2c ae b3 be 07 c2 cf bd fb 73 02 be
       -0.1731214 -0.3509382 -0.1014443 -0.12739556
000130 f0 dd 4e be cd 62 d8 bd 2d 12 1a be b2 b7 18 be
       -0.2020185 -0.1056572 -0.15045996 -0.14913824
000140 61 fe 31 be da 12 54 bd a0 fc 0c be aa ba 04 be
       -0.17382194 -0.05177579 -0.13768244 -0.12961832
000150 c1 cb fd bd 76 eb ba bd c7 9b 04 be d8 eb 1f be
       -0.123923786 -0.09126942 -0.1295005 -0.15617311
000160 a0 a6 0d be a0 ea 5c be 86 7c b0 be 0a f3 bd bd
       -0.13833094 -0.21573877 -0.34470004 -0.09274872
000170 17 19 80 bd bc bc e0 bd 0d 43 07 be a6 bd e2 bd
       -0.062547855 -0.10973498 -0.13209172 -0.11071329
000180 5d 51 64 bd eb 33 d7 bd 1a 9f 3e bd 8f 87 29 bd
       -0.055741657 -0.105079494 -0.04653845 -0.041389044
000190 e7 5e 51 be 19 40 a2 bc 25 40 a4 bd bf 66 2a bd
       -0.20446359 -0.019805955 -0.08020047 -0.041601893
0001a0 4c 3c 1e be 6f 57 5d be a2 95 fa bd 1c c0 be bd
       -0.15452689 -0.21615385 -0.122355714 -0.09313986
0001b0 13 85 ef bd 62 17 4c be a0 a8 99 bd e7 c1 ff bd
       -0.11695304 -0.19930795 -0.07502866 -0.12488156
0001c0 59 f6 f7 bd 2b fb 07 be 13 b8 40 be 8d 17 83 bd
       -0.12107534 -0.13279407 -0.18820219 -0.06400976
0001d0 54 5f 91 bd 8e 65 c9 bd 7b ad 90 bd 73 8a 83 bd
       -0.070982605 -0.09833823 -0.07064339 -0.064228915
0001e0 51 7c 11 be 2e f9 43 be e7 fe 82 bd a1 90 24 bd
       -0.14207579 -0.19138023 -0.06396275 -0.04017699
0001f0 65 b5 09 bd 1a 40 d9 be 24 d9 91 bc 59 ab e0 bd
       -0.033620257 -0.42431718 -0.017803736 -0.10970182
000200 b3 4e 5e be 32 c2 13 bd 84 da 15 be 9e a9 9a bd
       -0.21709709 -0.03607387 -0.14634138 -0.07551883
000210 d2 d6 88 bd 30 7d 0e be 5a 09 58 be cd 28 3d be
       -0.06681599 -0.13914943 -0.21097317 -0.18472596
000220 39 01 0c be 69 b5 41 be a5 52 fb bd c8 fd 59 bd
       -0.13672341 -0.18916859 -0.122716226 -0.05322054
000230 e5 7f 96 bd ac eb 0b be d3 b6 e0 bd 18 6d 9f bd
       -0.07348613 -0.1366412 -0.10972371 -0.0778448
000240 91 d3 0b be 99 2a 08 be 8f ac 9d bd 91 81 27 bd
       -0.13654925 -0.132975 -0.076989286 -0.04089505
000250 3c 50 98 bd af 1e 32 bd ca 05 d8 be d1 a2 11 be
       -0.074371785 -0.043486293 -0.42191917 -0.14222266
000260 70 5a c6 bd a6 c1 06 be 75 8a 0c be 16 4e 30 be
       -0.09685218 -0.13159809 -0.13724692 -0.17217287
000270 1e 82 2d be 6a 80 cf bc a3 cf 82 be 3a 4e 16 be
       -0.16944167 -0.025329787 -0.2554904 -0.14678279
000280 f6 1f e0 bd af 92 db bc c3 f3 d7 bd e7 f1 9e bd
       -0.10943596 -0.026803343 -0.10544541 -0.07760983
000290 8b cf cc bd 73 82 c5 bd 11 78 0f be be a3 20 be
       -0.10000523 -0.09644022 -0.14010645 -0.15687463
0002a0 f7 d3 ec bd e3 64 b1 bd a1 df 20 be 25 f0 3b be
       -0.115638666 -0.08661821 -0.15710308 -0.18353327
0002b0 a9 54 06 be 6d c0 ec bd 1d ed 19 be 78 c9 16 be
       -0.13118233 -0.1156014 -0.15031858 -0.14725292
0002c0 5d 95 06 be d6 e0 21 be dc 4d 09 be 7c 5b 1b be
       -0.13142915 -0.15808424 -0.13408607 -0.15171617
0002d0 06 e8 b2 bd bf 9d c5 bc b9 f4 5b 3e 4d fd 4f 3e
       -0.08735661 -0.02412307 0.21480073 0.2031147
0002e0 e4 47 5e 3d 7a 80 ac bc c6 52 b4 3c ed 26 e0 bc
       0.05426778 -0.021057356 0.022012126 -0.027362311
0002f0 97 4e f6 3d 55 5d a0 3d c4 71 e0 3d 4b 20 4c 3e
       0.120267086 0.07830302 0.10959199 0.19934194
000300 de e0 a4 3d e4 da 40 3d 5f 2e 4b be ea 7a 0f be
       0.080507025 0.04708375 -0.19841908 -0.14011732
000310 f1 1a a2 3d 7f 79 fe bd eb bb da bd fa 33 b2 3d
       0.07915295 -0.12425517 -0.10680374 0.0870132
000320 77 ca 67 3d c1 e3 0c be 41 62 9a 3e df 1e a1 bc
       0.05658957 -0.13758756 0.30153087 -0.01966804
000330 75 ec 0a be 75 e3 28 3d 48 e6 e5 be 21 c0 dd bd
       -0.13566764 0.041232545 -0.44902253 -0.10827661
000340 27 df 78 bf 1c 9f 9c 3d 34 9d 90 3e b3 6d c2 bc
       -0.97215503 0.07647535 0.28244936 -0.02373395
000350 99 eb 60 bd 20 c7 4d bf 89 e7 23 3e 84 63 1d bd
       -0.054912183 -0.80381966 0.16006292 -0.038424984
000360 59 26 64 bd f6 82 18 be 58 e0 2b bf 5e 22 8e 3d
       -0.055700634 -0.14893708 -0.67139196 0.06940149
000370 45 47 e7 bd ba 22 88 3d a5 44 79 bd 0d 27 1d 3e
       -0.112928905 0.066472486 -0.06085648 0.15346928
000380 9e 75 66 be 47 e8 05 bd 0b 65 be 3d 8f f8 96 3d
       -0.22505805 -0.03269222 0.09296616 0.073716275
000390 ab 76 7f be ae 49 f1 3c c3 14 f8 3d d3 2b 45 3c
       -0.24947612 0.029454079 0.12113335 0.012034374
0003a0 e1 04 13 bf 90 10 9d be 94 af f5 3d 37 42 9f bc
       -0.5742932 -0.306767 0.119963795 -0.019440753
0003b0 f6 b4 07 3e 83 ea 9c 3d e7 c8 1a 3d c5 bd 06 bf
       0.13252625 0.07661917 0.03778925 -0.52633315
0003c0 75 23 50 bd 03 32 6a bd ce 62 cb 3d f6 f2 a0 bd
       -0.050815064 -0.0571766 0.09930955 -0.07858841
0003d0 d1 cc 6e 3e 7d 61 15 bd 77 e6 f4 be ef 50 be bd
       0.23320319 -0.036469925 -0.4783208 -0.092927806
0003e0 7d 1a 10 bf f3 e1 08 3e 88 ce 94 3c 35 63 88 3d
       -0.5629042 0.13367443 0.018164888 0.06659547
0003f0 13 0f 8b bb f5 f4 ea 3c f9 3d 0c bf ce 41 16 bf
       -0.0042437403 0.028681258 -0.5478206 -0.5869416
