model(o).pth (torch, 651237 bytes, 4 tensors)

layer.1.weight f4 [180, 720]
0.027622357 -0.13023362 0.022074774 -0.09237869 0.013280884 -0.09985434 0.03109621 -0.09908352
0.05741604 -0.106138356 0.051216587 -0.1005186 0.036419015 -0.093288735 0.01910896 -0.09186848
0.083220474 -0.09669673 0.058478374 -0.10363419 0.06208649 -0.10578039 0.0369206 -0.11872034
0.026359713 -0.095331185 0.03871126 -0.103846915 0.06557209 -0.10230457 0.053021215 -0.107776605
0.060138524 -0.09673104 0.08241475 -0.118991934 0.04875852 -0.09757417 0.07560934 -0.081254944
0.075724505 -0.11741142 0.05026528 -0.11120537 0.0635023 -0.08432548 0.08032815 -0.11550859
0.07050994 -0.11967718 0.07534963 -0.14320618 0.067430384 -0.09466854 0.06635219 -0.10217367
0.04780236 -0.08165839 0.0795571 -0.076024815 0.08793091 -0.113192156 0.05421609 -0.08795832
0.093627214 -0.0874495 0.073437385 -0.118706234 0.08094814 -0.08054528 0.085738875 -0.07271182
0.04948337 -0.08416542 0.07234459 -0.11505081 0.085372314 -0.10178172 0.056282025 -0.08688717
0.076911256 -0.08028476 0.07009402 -0.11271023 0.08850598 -0.0931721 0.09268162 -0.094593205
0.0704501 -0.07694628 0.06940549 -0.10355797 0.063380286 -0.09011666 0.08855234 -0.06607294
0.109403506 -0.08406213 0.08874661 -0.06376436 0.09057172 -0.06473991 0.08344189 -0.1045712
0.09066743 -0.075404435 0.08529051 -0.07789092 0.0563691 -0.040265244 0.07030993 -0.049715742
0.10239506 -0.057921585 0.088593386 -0.08712624 0.12717661 -0.066242196 0.09106642 -0.062498756
0.0668872 -0.06871043 0.09293343 -0.03526186 0.086677946 -0.069673285 0.10470215 -0.058737475
0.1048517 -0.085475385 0.08746731 -0.026560755 0.09411542 -0.030737001 0.08318156 -0.05316756
0.08362312 -0.014993341 0.09805979 -0.003798265 0.11808052 -0.027406469 0.10938448 -0.0320475
0.094624676 -0.036427055 0.09841604 -0.05455712 0.07976753 -0.022793794 0.10489478 -0.019559141
0.11398014 -0.009361593 0.10095927 -0.006292041 0.070012316 -0.016606094 0.10720413 0.014637162
0.08881608 -0.004752334 0.08809901 -0.010337444 0.08758237 -0.009217916 0.10102551 0.009535174
0.09081644 -0.0076242303 0.090440996 0.0043428415 0.11140777 -0.0112742735 0.10009549 0.017678812
0.08374518 -0.0016709133 0.088352285 0.0050298357 0.07520518 0.014656775 0.10078535 0.017306535
0.075151116 0.019840948 0.109412834 0.022505304 0.083979845 0.009867486 0.068739966 0.02293143
0.10050182 0.0076871994 0.07112982 0.042833608 0.07437413 -0.0017685308 0.08979005 0.060133856
0.087512806 0.036267824 0.11742197 0.062215764 0.0977979 0.053425044 0.065266065 0.019653417
0.065319255 0.016014557 0.08189324 0.058999278 0.093320854 0.012209174 0.075718164 0.074982636
0.05862208 0.037967052 0.07535692 0.05355339 0.08160441 0.08358505 0.0568825 0.040376037
0.075526066 0.044217877 0.06295795 0.110409684 0.07510965 0.052446477 0.07499358 0.038291927
0.06252054 0.07445298 0.06734486 0.050195772 0.07226917 0.054990467 0.040365532 0.06824002
0.08987445 0.105493814 0.06984139 0.08786481 0.03661111 0.07346926 0.07084255 0.082037486
0.088122785 0.0358928 0.06584133 0.06644482 0.09311505 0.06760065 0.089955494 0.07058052
00000000: 4848 e23c f65b 05be 28d6 b43c 0a31 bdbd
00000010: 1198 593c 6f80 ccbd 7bbd fe3c 4dec cabd
00000020: 152d 6b3d 115f d9bd 7cc8 513d b2dc cdbd
00000030: 1b2c 153d 2a0e bfbd 658a 9c3c 8b25 bcbd
00000040: 7f6f aa3d ef08 c6bd 0587 6f3d 2a3e d4bd
00000050: 674e 7e3d 64a3 d8bd 0e3a 173d a623 f3bd
00000060: 53f0 d73c ff3c c3bd b38f 1e3d b1ad d4bd
00000070: a94a 863d 0f85 d1bd c62c 593d fbb9 dcbd
00000080: d053 763d ec1a c6bd 10c9 a83d 0bb2 f3bd
00000090: 04b7 473d f7d4 c7bd 12d9 9a3d fe68 a6bd
000000a0: 7315 9b3d 6675 f0bd f7e2 4d3d a4bf e3bd
000000b0: 7e0d 823d d6b2 acbd 1683 a43d c58f ecbd
000000c0: 8467 903d 4f19 f5bd e850 9a3d a4a4 12be
000000d0: f118 8a3d 94e1 c1bd a8e3 873d 6e40 d1bd
000000e0: 68cc 433d 843c a7bd d5ee a23d e6b2 9bbd
000000f0: 1f15 b43d 4ad1 e7bd b111 5e3d 7e23 b4bd
00000100: a0bf bf3d b918 b3bd 5766 963d 411c f3bd
00000110: 23c8 a53d ecf4 a4bd dd97 af3d efe9 94bd
00000120: 13af 4a3d eb5e acbd 6729 943d c29f ebbd
00000130: aed7 ae3d ef72 d0bd fb87 663d e7f1 b1bd
00000140: a683 9d3d 566c a4bd 748d 8f3d 9fd4 e6bd
00000150: a042 b53d 04d1 bebd dccf bd3d 15ba c1bd
00000160: 2448 903d 0396 9dbd 7724 8e3d 3316 d4bd
00000170: 86cd 813d 158f b8bd ee5a b53d 4051 87bd
00000180: f20e e03d c428 acbd c8c0 b53d e496 82bd
00000190: aa7d b93d 5c96 84bd 95e3 aa3d 6d29 d6bd
000001a0: d8af b93d a46d 9abd caac ae3d 4685 9fbd
000001b0: 49e3 663d 2bed 24bd a7fe 8f3d bca2 4bbd
000001c0: 80b4 d13d 2f3f 6dbd 7370 b53d 3e6f b2bd
000001d0: 963a 023e fda9 87bd 0881 ba3d b2fe 7fbd
000001e0: 28fc 883d 0eb8 8cbd e253 be3d bd6e 10bd
000001f0: 3584 b13d deb0 8ebd 156e d63d b596 70bd
00000200: 7dbc d63d b80d afbd 1022 b33d f195 d9bc
00000210: 96bf c03d 2acc fbbc 185b aa3d 3ac6 59bd
00000220: 9942 ab3d a1a6 75bc 92d3 c83d 50ec 78bb
00000230: 33d4 f13d 8883 e0bc f804 e03d 3d44 03bd
00000240: 95ca c13d 8934 15bd 598e c93d 4977 5fbd
00000250: 295d a33d 0dba babc 13d3 d63d 7e3a a0bc
00000260: 6b6e e93d 5e61 19bc bcc3 ce3d 772d cebb
00000270: 9e62 8f3d 8109 88bc d78d db3d b5d0 6f3c
00000280: 34e5 b53d 78b9 9bbb 416d b43d 625e 29bc
00000290: 635e b33d be06 17bc 76e6 ce3d 6b39 1c3c
000002a0: f8fd b93d aed4 f9bb 2139 b93d 654e 8e3b
000002b0: c229 e43d bbb7 38bc ddfe cc3d 28d3 903c
000002c0: 9882 ab3d 8c02 dbba 0bf2 b43d 52d1 a43b
000002d0: 2c05 9a3d f822 703c 8d68 ce3d 6fc6 8d3c
000002e0: d4e8 993d 7c89 a23c d613 e03d 0b5d b83c
000002f0: a0fd ab3d 3cab 213c 8ac7 8c3d b2da bb3c
00000300: e6d3 cd3d e7e4 fb3b 83ac 913d 4b72 2f3d
00000310: 7751 983d 0cce e7ba d9e3 b73d eb4e 763d
00000320: ea39 b33d 928d 143d ee7a f03d f5d5 7e3d
00000330: 444a c83d 38d4 5a3d 37aa 853d 3400 a13c
00000340: 1ac6 853d f630 833c a5b7 a73d 3aa9 713d
00000350: 011f bf3d fd08 483c 2012 9b3d 7f90 993d
00000360: b51d 703d 5783 1b3d bb54 9a3d cd5a 5b3d
00000370: 3720 a73d a42e ab3d a0fd 683d 5861 253d
00000380: 69ad 9a3d ce1d 353d 19f0 803d 791e e23d
00000390: 17d3 993d 1ed2 563d 3c96 993d ffd7 1c3d
000003a0: c50a 803d ce7a 983d 1aec 893d 159a 4d3d
000003b0: dc01 943d af3d 613d 5456 253d 6cc1 8b3d
000003c0: 1810 b83d 240d d83d 0109 8f3d 77f2 b33d
000003d0: 88f5 153d 0d77 963d e615 913d 4503 a83d
000003e0: b879 b43d 5404 133d d2d7 863d 3914 883d
000003f0: 1ab3 be3d 3672 8a3d 963a b83d 858c 903d

layer.1.bias f4 [180]
-0.0056727557 0.012246742 -0.01819728 0.026081761 -0.0025086629 -0.027134985 -0.038425405 0.029148035
0.0039877202 0.019493764 0.023851054 0.012514054 0.0076317186 0.008504657 0.0022791633 -0.019515377
-0.030653916 -0.02571952 -0.0033351723 0.03970096 0.036999647 -0.01931467 0.029131796 -0.0053057214
-0.02376206 0.009214795 -0.027774636 -0.0054669892 -0.005439021 -0.031386327 0.035309974 0.013599562
-0.0149033 -0.029106975 -0.0018396057 -0.014682324 -0.0072839246 0.027508575 -0.01801588 0.018498452
-0.009456371 -0.0044323136 0.020962514 -0.023658164 0.014552875 -0.018533938 -0.005083008 0.018713564
-0.005562357 -0.042082842 0.019605141 0.020106412 -0.02881563 -0.03961674 -0.023507109 0.03188512
0.028654912 -0.011134194 0.013290579 0.014259192 -0.019376915 0.022624139 -0.0045984276 0.035596367
-0.015948666 -0.02985671 -0.0063856216 -0.028802587 0.021666829 -0.008803933 -0.03276775 -0.01589825
-0.0028917403 -0.039461076 0.029791288 -0.028622165 -0.017461358 0.0040059905 0.009807805 0.022949228
0.006984984 -0.012902003 0.030294063 0.021465246 0.035470046 -0.039125174 0.03585229 -0.028047195
0.014386499 0.017272398 -0.0148678925 -0.028089786 0.041215744 -0.015506145 0.03630011 -0.03054788
0.02160296 0.004570331 0.022604596 0.021157935 0.0090431385 0.016516883 0.028347528 -0.017858656
-0.022632806 0.02554499 0.026892154 -0.020310106 -0.027027098 0.011373862 -0.019234264 0.022731194
-0.042193305 -0.036938697 0.027101357 0.04692466 0.018143548 0.019580271 0.037321158 -0.022044603
-0.016852977 0.029086556 -0.005424739 -0.013357088 -0.010620891 -0.01980807 -0.03379864 0.0105849905
0.00024594335 -0.011022076 -0.028438875 0.022357302 -0.034452204 -0.00816728 -0.03484865 -0.021556225
0.018804464 0.024542885 0.013443557 -0.021964585 0.02526377 -0.031864904 0.01664194 -0.01537281
0.013221661 -0.0010992342 0.008736224 0.0047967667 -0.04028599 -0.027719107 -0.0031933833 0.012350447
-0.011875475 -0.023769587 -0.025237842 0.033277854 -0.012374991 0.0343192 -0.018202586 0.035101864
0.011160024 -0.04395308 0.024835533 -0.021919979 0.03566162 -0.030501034 -0.018226888 -0.010484217
-0.0045789024 -0.028501809 0.027725723 0.021492258 0.021146303 -0.019492483 0.0031111727 -0.014714669
0.0019251199 0.0106708845 0.028507423 0.027834333
00000000: 86e2 b9bb 8fa6 483c 7612 95bc 6ba9 d53c
00000010: 6168 24bb 304a debc f563 1dbd dcc7 ee3c
00000020: 6cab 823b 63b1 9f3c 4963 c33c bf07 4d3c
00000030: 7f13 fa3b 1e57 0b3c 045e 153b b6de 9fbc
00000040: ec1d fbbc beb1 d2bc e892 5abb 799d 223d
00000050: f18c 173d cc39 9ebc cea5 ee3c 9edb adbb
00000060: a7a8 c2bc a7f9 163c a287 e3bc 6e24 b3bb
00000070: d139 b2bb f38e 00bd 31a1 103d b3d0 5e3c
00000080: f92c 74bc c071 eebc ed1e f1ba 218e 70bc
00000090: fdad eebb aa59 e13c 0a96 93bc 118a 973c
000000a0: e5ee 1abc f13c 91bb 94b9 ab3c c4ce c1bc
000000b0: 2f6f 6e3c 7cd4 97bc 5d8f a6bb 304d 993c
000000c0: 6f44 b6bb 0f5f 2cbd f69a a03c 34b6 a43c
000000d0: c20e ecbc 2a45 22bd fb91 c0bc f999 023d
000000e0: b5bd ea3c 326c 36bc bbc0 593c 639f 693c
000000f0: 56bc 9ebc 4256 b93c 68ae 96bb 7fcd 113d
00000100: c7a6 82bc 0f96 f4bc 7a3e d1bb 67f3 ebbc
00000110: a27e b13c 5f3e 10bc 7a37 06bd 0c3d 82bc
00000120: 5a83 3dbb f0a1 21bd dc0c f43c 0879 eabc
00000130: 1f0b 8fbc af44 833b eab0 203c 0500 bc3c
00000140: 4be2 e43b ec62 53bc 412b f83c e2d7 af3c
00000150: 0a49 113d b841 20bd dad9 123d 3bc3 e5bc
00000160: 5ab5 6b3c d87e 8d3c 7698 73bc 8d1c e6bc
00000170: d7d1 283d 7c0d 7ebc 6daf 143d 8c3f fabc
00000180: b1f8 b03c b7c2 953b 462d b93c 6853 ad3c
00000190: ac29 143c 6a4e 873c 1339 e83c 514c 92bc
000001a0: 6f68 b9bc ba43 d13c ef4c dc3c 6161 a6bc
000001b0: ef67 ddbc 6f59 3a3c 2d91 9dbc c536 ba3c
000001c0: e3d2 2cbd 084d 17bd aa03 de3c 1334 403d
000001d0: c7a1 943c ce66 a03c 12de 183d e296 b4bc
000001e0: 410f 8abc ee46 ee3c 02c2 b1bb b0d7 5abc
000001f0: 3f03 2ebc 8944 a2bc 7170 0abd ab6c 2d3c
00000200: f5f1 8039 f095 34bc a5f8 e8bc a926 b73c
00000210: c11d 0dbd 0ed0 05bc 75bd 0ebd ae96 b0bc
00000220: d20b 9a3c 290e c93c 5d42 5c3c 13ef b3bc
00000230: f7f5 ce3c c684 02bd ae54 883c 3dde 7bbc
00000240: aa9f 583c 2e14 90ba 6122 0f3c 322e 9d3b
00000250: ec02 25bd 2e13 e3bc 1548 51bb 8759 4a3c
00000260: 5a91 42bc 70b8 c2bc 97bf cebc 5c4e 083d
00000270: 79c0 4abc 4a92 0c3d 971d 95bc f9c6 0f3d
00000280: 89d8 363c 2508 34bd e373 cb3c 8791 b3bc
00000290: eb11 123d 4edd f9bc 8e50 95bc fec5 2bbc
000002a0: 9e0a 96bb a07c e9bc 0e21 e33c 8810 b03c
000002b0: 033b ad3c b3ae 9fbc d1e4 4b3b cc15 71bc
000002c0: 4e54 fc3a efd4 2e3c 6688 e93c d404 e43c

layer.4.weight f4 [180, 180]
-0.09060046 -0.023497876 0.0401194 -0.13664806 -0.097533844 -0.14985494 -0.017032411 -0.16975932
-0.037753064 -0.18229364 -0.1669998 -0.25462463 -0.06723863 -0.20535319 -0.12995626 -0.1667173
-0.15573198 -0.13719526 0.027319245 -0.1768672 -0.11923252 -0.066065006 -0.11768055 -0.041817717
0.0107152 -0.107470706 -0.035943113 0.033099156 -0.18601482 -0.046803854 -0.14652821 -0.08615605
-0.3059671 -0.04197002 -0.25848565 -0.13609457 -0.11376214 0.061679978 -0.09684033 -0.039331537
-0.016274843 -0.40806141 -0.13070323 -0.2772969 -0.12488141 -0.061732233 -0.13672075 -0.13825193
0.035481635 0.002091075 0.031658072 -0.19277073 -0.06834891 -0.08571827 -0.20315887 -0.20629974
-0.18844074 -0.008742042 -0.17167203 -0.12823638 -0.17785734 -0.18550617 -0.20519078 -0.067062676
-0.18549845 -0.113414 -0.107170194 0.05267716 0.041318893 0.025693148 -0.1846454 -0.18450451
-0.05377621 -0.4394984 -0.36648083 -0.1386353 -0.56281847 0.008132357 -0.18912183 -0.5204847
-0.206857 -0.27475077 -0.050539743 0.016299902 -0.07306763 -0.10955186 -0.07331737 0.064604655
0.023166755 -0.06875854 -0.14337912 -0.11566624 -0.13010193 -0.24571371 -0.72666526 -0.13141546
-0.24075212 0.06457705 -0.12599114 -0.17187005 -0.4829417 -0.32578874 -0.12659621 -0.14555995
-0.14484482 -0.15404277 -0.31272596 -0.17700115 0.044887837 -0.12906463 -0.08132832 -0.29345614
0.06255439 -0.1389997 -0.030104691 -0.24385701 -0.14976072 0.058253195 -0.15098259 -0.75501925
-0.054936275 -0.113078125 -0.12036084 -0.14504203 -0.014680261 0.07212196 -0.15793636 -0.00042181354
0.04552506 -0.08331946 -0.14488684 -0.24403779 -0.01915116 -0.029438842 -0.19647285 -0.11473232
-0.16850175 -0.056295447 -0.057228126 -0.06523397 0.018606108 -0.02348278 -0.17144553 0.04492431
-0.06643755 -0.07184481 -0.060045034 -0.06321089 -0.028109048 -0.2747583 -0.1136214 -0.3279555
-0.075557515 -0.18379518 -0.07426135 -0.22354233 -0.19209465 -0.22809118 -0.13334593 -0.12556837
-0.15786101 0.06407951 -0.03252423 -0.02637125 -0.12288888 0.060148865 -0.053144164 -0.14832754
-0.13494863 -0.17670572 -0.102243654 -0.16801569 -0.124882154 -0.1457978 -0.16494024 -0.09183248
0.033831574 -0.14637896 -0.07147273 -0.21384786 0.12197162 -0.062333163 -0.06874595 0.042111278
0.027323853 -0.007006501 -0.08012269 -0.0032326407 0.018905587 0.050614357 0.09508639 -0.34932983
-0.025265004 0.0833563 0.12613499 0.093649134 0.09782009 0.11270741 -0.022828383 0.0203007
0.007660268 0.06006686 0.041154798 0.08990852 -0.02386667 -0.68104696 -0.067682765 -0.061280064
0.15506522 0.015838055 -0.05510319 0.054488022 0.12613866 0.052856132 -0.5781041 0.062565975
0.11085167 0.002952073 0.1956186 0.031327892 -0.04839289 -0.8678929 -0.71895653 0.032666516
-0.34000155 0.20586038 -0.58473253 -0.022788743 -0.06309984 -0.04803569 -0.030730015 0.07474063
0.113957025 0.032176986 0.041949045 -0.02962601 0.014891605 -0.00467159 0.1838669 0.06180908
0.06358859 -0.4323651 0.11624186 -0.3822071 0.032684278 -0.061026625 -0.57591325 0.031757534
-0.018218227 -0.009658876 0.0993791 -0.026229542 -0.028864842 -0.4489901 -0.4914856 0.038841527
00000000: bc8c b9bd 9e7e c0bc 3d54 243d 78ed 0bbe
00000010: d3bf c7bd 9373 19be 8e87 8bbc 63d5 2dbe
00000020: f5a2 1abd 2fab 3abe ff01 2bbe 295e 82be
00000030: 68b4 89bd 1b48 52be 4113 05be f1b7 2abe
00000040: 3478 1fbe ea7c 0cbe 9ccc df3c ad1c 35be
00000050: 2e30 f4bd 174d 87bd 8002 f1bd 0e49 2bbd
00000060: ce8e 2f3c 9a19 dcbd 1639 13bd fb92 073d
00000070: ab7a 3ebe 66b5 3fbd 7e0b 16be 9572 b0bd
00000080: b8a7 9cbe c1e8 2bbd 3b58 84be 605c 0bbe
00000090: 20fc e8bd 25a4 7c3d 3954 c6bd 1b1a 21bd
000000a0: d252 85bc 6ded d0be 11d7 05be dcf9 8dbe
000000b0: d3c1 ffbd f0da 7cbd 8600 0cbe ea91 0dbe
000000c0: 3155 113d 6b0a 093b e5ab 013d b165 45be
000000d0: 83fa 8bbd 0f8d afbd e108 50be 3d40 53be
000000e0: 9cf6 40be c83a 0fbc cbca 2fbe 6650 03be
000000f0: 3c20 36be 54f5 3dbe 881d 52be 2858 89bd
00000100: 4ef3 3dbe 9945 e8bd 0c7c dbbd 01c4 573d
00000110: 003e 293d 707a d23c af13 3dbe c0ee 3cbe
00000120: 7144 5cbd ef05 e1be 60a3 bbbe 69f6 0dbe
00000130: df14 10bf 943d 053c 27a9 41be 7c3e 05bf
00000140: 52d2 53be 22ac 8cbe c302 4fbd 5f87 853c
00000150: 7ba4 95bd ba5c e0bd 6b27 96bd 724f 843d
00000160: 35c8 bd3c 47d1 8cbd fad1 12be 6ce2 ecbd
00000170: 7139 05be 609c 7bbe bc06 3abf c691 06be
00000180: b987 76be f940 843d d203 01be b4fe 2fbe
00000190: 2244 f7be c8cd a6be 70a2 01be ab0d 15be
000001a0: 3352 14be 63bd 1dbe 9e1d a0be ca3f 35be
000001b0: 4fdc 373d 8529 04be 768f a6bd e23f 96be
000001c0: 841c 803d f055 0ebe 1d9e f6bc a7b5 79be
000001d0: e05a 19be e79a 6e3d 2e9b 1abe f148 41bf
000001e0: dc04 61bd 8195 e7bd be7f f6bd e685 14be
000001f0: 7a85 70bc aeb4 933d 12ba 21be db26 ddb9
00000200: 7c78 3a3d 65a3 aabd 375d 14be 0be5 79be
00000210: e5e2 9cbc ba29 f1bc 2e30 49be c7f8 eabd
00000220: b98b 2cbe 0e96 66bd 0a68 6abd 6399 85bd
00000230: d66b 983c f65e c0bc 6b8f 2fbe 8e02 383d
00000240: 6910 88bd 5f23 93bd c8f1 75bd b674 81bd
00000250: f244 e6bc 1fad 8cbe 56b2 e8bd c9e9 a7be
00000260: e6bd 9abd ce34 3cbe 5616 98bd 48e8 64be
00000270: 76b4 44be bc90 69be d68b 08be ff94 00be
00000280: 51a6 21be 1e3c 833d 2138 05bd 8508 d8bc
00000290: 2aad fbbd a85e 763d b2ad 59bd 2de3 17be
000002a0: f92f 0abe 58f2 34be 1f65 d1bd 4e0c 2cbe
000002b0: 37c2 ffbd 054c 15be 18e6 28be ab12 bcbd
000002c0: fa92 0a3d 5ee4 15be 4b60 92bd effa 5abe
000002d0: 42cc f93d 0f51 7fbd adca 8cbd e07c 2c3d
000002e0: 46d6 df3c ca96 e5bb 5d17 a4bd b6da 53bb
000002f0: e4df 9a3c 0051 4f3d a7bc c23d 5cdb b2be
00000300: 8ef8 cebc b5b6 aa3d 8829 013e 1ecb bf3d
00000310: e655 c83d 24d3 e63d 9702 bbbc a74d a63c
00000320: fc02 fb3b ab08 763d ef91 283d f521 b83d
00000330: 0984 c3bc 1859 2ebf 439d 8abd ce00 7bbd
00000340: 6bc9 1e3e cfbe 813c e2b3 61bd d52e 5f3d
00000350: 7e2a 013e ac7f 583d a1fe 13bf 9722 803d
00000360: 3306 e33d 9177 413b 3e50 483e ad51 003d
00000370: 9f37 46bd 3b2e 5ebf 890d 38bf 53cd 053d
00000380: af14 aebe 10cd 523e 08b1 15bf 75af babc
00000390: 7d3a 81bd 12c1 44bd 83bd fbbc 9e11 993d
000003a0: 4d62 e93d 04cc 033d c3d2 2b3d 3fb2 f2bc
000003b0: ebfb 733c 2314 99bb 9b47 3c3e 852b 7d3d
000003c0: bc3a 823d f55e ddbe 3610 ee3d a6b0 c3be
000003d0: f3df 053d 0ef7 79bd 0d6f 13bf 3014 023d
000003e0: 643e 95bc 4340 1ebc 4587 cb3d 56df d6bc
000003f0: f675 ecbc 08e2 e5be 00a4 fbbe 4b18 1f3d

layer.4.bias f4 [180]
-0.13883954 -0.09884235 -0.05111467 -0.1061351 -0.100057736 -0.04982468 -0.06067211 -0.022460083
-0.0342216 -0.048480835 0.045057032 -0.03479705 0.042796537 0.04920203 0.07313647 0.103494465
0.013877349 -0.016930973 0.04029661 0.0043506045 0.050336707 -0.0068698926 0.0031553109 0.026139537
0.088470206 0.115811355 0.07214843 0.103473626 0.09355677 -0.00976947 0.064386286 0.029923271
0.0103260055 0.12490349 0.09285872 0.11954645 0.074519865 -0.00792677 0.0155314375 0.12544264
0.049119562 0.0685402 0.046574846 0.026315749 0.12414394 0.007980834 0.024191037 -0.008662337
0.015682204 0.07136927 -0.0018068141 -0.03470595 0.003030754 0.060537323 0.055794448 -0.0049268845
-0.007493834 0.012541601 0.031767406 -0.053353168 0.03522407 -0.026317092 0.0244582 0.0020476454
-0.074316464 0.02611645 -0.013883848 -0.06648046 -0.050971914 -0.009389477 -0.063726485 -0.022119954
-0.07463191 -0.08902099 -0.025425468 -0.041220836 -0.10527993 -0.13063891 -0.10434344 -0.15408266
-0.15348206 -0.1247418 -0.156435 -0.116866924 -0.12414788 -0.085015446 -0.13024287 -0.053614292
-0.12837617 -0.034798108 -0.15195139 -0.07453136 -0.03730277 -0.10467015 -0.05398554 -0.057080317
-0.0602271 -0.07991582 -0.055727057 -0.11305722 -0.11155744 -0.0033057053 -0.07105091 -0.119993635
-0.02237224 -0.040761955 -0.06652643 -0.05314733 -0.071131796 -0.056398667 -0.11122214 0.024553524
-0.08651307 -0.016758423 0.02748027 -0.09007311 0.030548718 -0.023591334 -0.035582058 -0.026842555
0.013758815 0.006292918 0.06995963 -0.030723765 0.01389306 -0.0030745282 0.022758432 0.025816968
0.104188934 0.08951552 -0.0019388518 0.056939017 -0.01326358 -0.0030907644 0.037105806 0.0563988
-0.023535209 0.02901715 0.017258422 0.11241696 0.06830829 0.034648273 0.06565388 0.06904709
0.06991628 0.10426549 0.095172286 0.14111556 0.08204016 0.10690772 0.12433357 0.14042208
0.039000873 0.03249948 0.12668239 0.040157992 0.013504833 0.014171948 0.048517242 0.10358822
0.0051916344 0.067452155 0.08193269 0.026790304 -0.0020357436 -0.012369343 0.0202328 0.036313288
0.059654333 0.0019732676 -0.07667868 0.057792425 0.04944289 -0.058256056 -0.032242436 -0.001455569
-0.10363926 -0.03503167 -0.07268172 -0.090587854
00000000: f42b 0ebe dc6d cabd 9e5d 51bd 5c5d d9bd
00000010: 12eb ccbd f714 4cbd 5283 78bd 35fe b7bc
00000020: f32b 0cbd d793 46bd b98d 383d 5a87 0ebd
00000030: 6c4b 2f3d 1188 493d 93c8 953d e8f4 d33d
00000040: d25d 633c d3b2 8abc 0f0e 253d 848f 8e3b
00000050: dd2d 4e3d d61c e1bb 55c9 4e3b 9522 d63c
00000060: de2f b53d 812e ed3d 8ec2 933d fbe9 d33d
00000070: b19a bf3d 2110 20bc f5dc 833d a621 f53c
00000080: 682e 293c 67cd ff3d b62c be3d c5d4 f43d
00000090: df9d 983d 48df 01bc 9277 7e3c 0974 003e
000000a0: 9831 493d ce5e 8c3d 44c5 3e3d 2094 d73c
000000b0: 2e3f fe3d 0bc2 023c 482c c63c 7aec 0dbc
000000c0: f777 803c 0d2a 923d 9fd2 ecba d427 0ebd
000000d0: 9d9f 463b fcf5 773d b888 643d b471 a1bb
000000e0: d68e f5bb 4a7b 4d3c 8a1e 023d da88 5abd
000000f0: 1d47 103d f196 d7bc 905c c83c ca31 063b
00000100: 3b33 98bd 2af2 d53c 1479 63bc e826 88bd
00000110: edc7 50bd 52d6 19bc 0883 82bd e834 b5bc
00000120: 9dd8 98bd a350 b6bd 1249 d0bc 2ed7 28bd
00000130: 019d d7bd 35c6 05be 03b2 d5bd d8c7 1dbe
00000140: 672a 1dbe a178 ffbd 7f30 20be ed57 efbd
00000150: 3e41 febd 941c aebd 635e 05be a99a 5bbd
00000160: 0b75 03be 7688 0ebd 2599 1bbe e6a3 98bd
00000170: caca 18bd 4e5d d6bd f11f 5dbd 0dcd 69bd
00000180: b1b0 76bd e8aa a3bd 0e42 64bd 8b8a e7bd
00000190: 3a78 e4bd 88a4 58bb 2483 91bd 39bf f5bd
000001a0: fd45 b7bc 02f6 26bd 023f 88bd 04b1 59bd
000001b0: 8cad 91bd 4a02 67bd 6fc8 e3bd 7924 c93c
000001c0: c42d b1bd f648 89bc 4e1e e13c 4078 b8bd
000001d0: 4e41 fa3c 9d42 c1bc 7ebe 11bd ebe4 dbbc
000001e0: a76c 613c d334 ce3b ff46 8f3d 68b0 fbbc
000001f0: b89f 633c 067e 49bb e46f ba3c 1b7e d33c
00000200: 0261 d53d ea53 b73d 1221 feba e338 693d
00000210: 7d4f 59bc 6c8e 4abb 42fc 173d 6e02 673d
00000220: e9cc c0bc 60b5 ed3c 8961 8d3c dd3a e63d
00000230: 37e5 8b3d 59eb 0d3d 8b75 863d 9068 8d3d
00000240: 4430 8f3d 2589 d53d b0e9 c23d 9980 103e
00000250: ac04 a83d 6ff2 da3d 99a2 fe3d ceca 0f3e
00000260: 61bf 1f3d 2d1e 053d 07b9 013e b57c 243d
00000270: 6043 5d3c 7531 683c 04ba 463d 1026 d43d
00000280: 961e aa3b 5b24 8a3d 54cc a73d 5777 db3c
00000290: 1c6a 05bb c9a8 4abc 42bf a53c 3ebd 143d
000002a0: 1a58 743d f051 013b b609 9dbd c0b7 6c3d
000002b0: a184 4a3d e79d 6ebd a510 04bd cbc8 beba
000002c0: d240 d4bd 5e7d 0fbd 27da 94bd 2086 b9bd
