model(a).pth (torch, 649195 bytes, 2 tensors)

layer.1.weight f4 [180, 720]
000000 1b 76 b2 bd 70 56 b0 3c dd 67 22 bd de ed f8 3c
       -0.08713933 0.021525592 -0.039649833 0.030386861
000010 1f 19 94 bd d9 1f 8f 3d c6 29 71 bd 51 48 20 3d
       -0.07231354 0.06988496 -0.05887773 0.039131466
000020 e0 b7 91 bd 7d c0 8a 3d 56 8d 3e bd 33 89 0c 3d
       -0.071151495 0.067749955 -0.046521507 0.03431053
000030 8b 96 7a bd 28 f2 56 3d 47 67 6e bd 44 3a a3 3c
       -0.061178725 0.052477032 -0.05820396 0.019925244
000040 ba a2 ec bc 5f 25 d3 3c ef 30 be bd a1 4f 98 3d
       -0.028886188 0.025774656 -0.09286677 0.07437063
000050 1a f9 b5 bd 8a e8 a2 3d 22 be 3c bd 6e f8 53 3d
       -0.08885403 0.079545096 -0.046079762 0.051750593
000060 e4 f3 36 bd c5 b1 5f 3d 8e 62 56 bd 32 ec 45 3d
       -0.044666186 0.054612894 -0.052340083 0.048320957
000070 74 f3 91 bd 43 2c ae 3d ef 16 14 bd 9e 0e ba 3d
       -0.07126513 0.08504536 -0.036154684 0.09084819
000080 70 2a 79 bd 4e 29 ae 3d e1 6f d2 bc b3 20 e5 3c
       -0.060831487 0.08503972 -0.025688114 0.027969694
000090 00 b2 b0 bc 04 3b 47 3d 44 ea 61 bd c0 a8 68 3d
       -0.021569252 0.048640266 -0.055155054 0.056801558
0000a0 b3 e6 ff bc 62 f9 c2 3d f1 10 6c bd 6c 51 70 3d
       -0.031237936 0.09520222 -0.057633344 0.0586714
0000b0 e0 25 18 bd 30 a5 55 3d 8b b4 b4 bc 2f 36 9b 3d
       -0.037145495 0.05215949 -0.022058746 0.07578694
0000c0 46 54 96 bd 0c 6c 55 3d ba 72 89 bc d6 9b 4a 3d
       -0.07340293 0.052104995 -0.016778339 0.049465023
0000d0 f3 e6 57 bd c6 5e 2b 3d ee 79 4f bd 88 18 9e 3d
       -0.052710485 0.04183843 -0.05065339 0.07719523
0000e0 fc 50 4f b8 8f d8 4c 3d 83 aa 69 bd 2c 3a 92 3d
       -4.942807e-05 0.050011214 -0.05704738 0.07140002
0000f0 b8 35 59 bc fc 27 ad 3d 54 13 eb ba be 17 e1 3d
       -0.013257436 0.08454892 -0.0017934837 0.109908566
000100 bb 66 4a bd 05 ec 28 3d 30 f4 8a bd bf 3d 3f 3d
       -0.049414378 0.04124071 -0.06784856 0.046689745
000110 a0 ed 92 37 03 44 d2 3d 0b a1 8c bc d3 19 a9 3d
       1.7515209e-05 0.102668785 -0.017166635 0.08256879
000120 f2 f2 68 ba 3f 7e da 3d ef 5b 6b bc 75 8b d7 3d
       -0.00088862993 0.10668611 -0.01436518 0.10524646
000130 ee 82 29 bb 5b e9 cc 3d 89 bf 38 bd 39 4f 67 3d
       -0.0025865394 0.100054465 -0.045104537 0.056472037
000140 a7 84 2a bd 6f 6d 4d 3d 7c 15 38 bd da 9c 8a 3d
       -0.041630413 0.050153192 -0.044942364 0.06768198
000150 46 3a 1a 3a ec 4a 55 3d da d7 be bc 14 3c 87 3d
       0.0005883317 0.052073404 -0.023296285 0.06603256
000160 ed ad e3 3b 4d 3c b1 3d cb 99 2f bb b7 31 88 3d
       0.006948224 0.086540796 -0.0026794549 0.06650107
000170 6d 32 54 bd 36 75 cf 3d d2 e0 95 bc 79 88 cf 3d
       -0.051805902 0.10129778 -0.01829568 0.10133452
000180 e4 a3 00 bb 3d 35 e5 3d 52 d8 ca 3c a3 49 31 3d
       -0.0019628936 0.11191795 0.024761353 0.043283116
000190 f0 2e fe bc 5c 38 76 3d 4d 58 21 bc 9c 5d bb 3d
       -0.03102824 0.060112342 -0.009847713 0.09148714
0001a0 3d 35 11 3b fd 9a e7 3d e5 ec b4 bc 7a a3 a7 3d
       0.0022156977 0.113088585 -0.022085616 0.081854776
0001b0 3b 5e 37 bc 97 dd c1 3d 10 c6 a9 3b 0a ac 72 3d
       -0.0111919 0.09466093 0.0051810816 0.0592461
0001c0 59 54 1c bd 0c 90 93 3d 45 0c 3a 3c f4 93 2a 3d
       -0.038166378 0.07205209 0.011355464 0.041645005
0001d0 d2 b5 bc 3b ff 21 b2 3d 11 6a f8 3b a8 91 d1 3d
       0.0057589794 0.086978905 0.0075810035 0.1023286
0001e0 a0 a9 b2 bc 84 36 7b 3d e8 86 e6 3c cd 81 8a 3d
       -0.0218094 0.061331287 0.0281405 0.06763039
0001f0 10 3f ad 3b 53 e6 b3 3d 5e ed 3d bc 46 74 c8 3d
       0.0052870587 0.08784165 -0.011592237 0.097878024
000200 54 b2 e8 3c f3 95 b4 3d 52 60 03 3d 59 e4 c3 3d
       0.028405346 0.08817663 0.03207428 0.09565038
000210 18 f4 d0 bb 5e 84 97 3d c0 ae ce 3c fc 9b a8 3d
       -0.0063767545 0.07398294 0.025229812 0.08232877
000220 c3 98 1c 3d 95 01 57 3d 16 90 33 3c b0 c8 17 3d
       0.038231622 0.052491743 0.010959646 0.037056625
000230 7e ad 16 3c 42 c0 96 3d 4c 53 8a bc 92 c6 0d 3d
       0.009196637 0.07360889 -0.016885422 0.0346132
000240 71 2f 92 bb 28 c3 b0 3d c0 f5 84 bc ae eb ae 3d
       -0.004461222 0.08630973 -0.016230464 0.08541046
000250 20 ae e2 3b 37 9a 6c 3d 53 8c 63 3d 0a 1b 2c 3d
       0.00691773 0.05776426 0.055553745 0.042017974
000260 e9 d0 ec 3c 44 76 ab 3d fe 67 21 3d 5c 38 26 3d
       0.02890821 0.08372167 0.039405815 0.040581092
000270 b7 14 03 3d 2d f0 ec 3c 35 df 94 3c 3f 1e a0 3d
       0.032002177 0.028923118 0.01817284 0.07818269
000280 14 ec 0d 3c 68 77 97 3d de c3 2b 3d d2 dd e3 3c
       0.008662242 0.07395822 0.04193484 0.027815733
000290 a9 d8 1d 3c 20 96 96 3d 98 65 bc ba 02 84 9a 3d
       0.009634175 0.07352853 -0.0014373539 0.0754471
0002a0 90 06 f1 3c 82 f3 9a 3d ef 4b 61 3d d5 23 a2 3d
       0.029422075 0.07565977 0.055004057 0.07916991
0002b0 bd f6 f9 3c 3c b0 ef 3c 83 75 62 3d 65 64 13 3d
       0.030513162 0.02925884 0.05528785 0.035984416
0002c0 b0 95 d7 3c 2e b4 97 3d db ff 3a 3d f6 a9 79 3d
       0.026316494 0.074074134 0.04565416 0.060953103
0002d0 6c 1d e4 3c c2 6d d5 3c 5c 27 63 3c ba fd 51 3c
       0.02784606 0.026053313 0.0138643645 0.012816841
0002e0 4b 3f 29 3d a2 f7 67 3d 8b 54 87 3d 9d a5 13 3d
       0.041320127 0.056632645 0.06607922 0.036046613
0002f0 d3 74 32 3d 0a 6f 4f 3d 19 1f 83 3d fb 9e 00 3d
       0.043568444 0.050643004 0.06402416 0.031401616
000300 27 c5 8a 3d dc 88 1c 3d 63 f8 6a 3d 2f 82 0b 3d
       0.06775885 0.038216457 0.057365786 0.0340597
000310 af 28 ab 3d 13 10 c9 3c 23 af 8c 3d 9b 0b 38 3d
       0.08357369 0.024543798 0.06869342 0.044932943
000320 35 60 63 3d 96 4f 56 3c 9a 50 19 3d 0a 6c 0f 3c
       0.055511672 0.013080498 0.037430383 0.008753786
000330 1b 73 a5 3d da 5e 3f 3d ad 2f 58 3d 71 42 ee 3c
       0.08078595 0.046721317 0.052779842 0.029084416
000340 26 2d 89 3d ed 14 13 3d f9 56 c7 3d ff e6 26 3c
       0.066980645 0.03590863 0.097333856 0.01018691
000350 e4 20 51 3d e9 b1 5f 3d dc d2 d9 3d 1a 7e 33 3d
       0.051056758 0.054613028 0.10635921 0.04382143
000360 36 14 cd 3d 44 0f b4 39 f0 71 e2 3d 14 fe 8a 3c
       0.100136206 0.0003434365 0.11056888 0.016966857
000370 d9 64 e2 3d d8 f8 c5 bb 6c 1f 52 3d ff e9 ba bb
       0.110543914 -0.0060416274 0.051299497 -0.005704164
000380 c1 af 81 3d 0e d5 85 bc af dd 69 3d bb 1a 21 3a
       0.063323505 -0.016336944 0.05709618 0.0006145646
000390 5e 39 e7 3d 78 6f 5f bc 92 d7 dc 3d 57 3c e4 3c
       0.11290239 -0.013637416 0.10783304 0.027860804
0003a0 7b 06 ef 3d ff bf 23 3d b2 f2 b7 3d d3 ec 79 bc
       0.11671158 0.039978024 0.08981837 -0.015254217
0003b0 ef f5 d3 3d ea 0d 02 bc 0f 2f 92 3d 20 af e6 3c
       0.103496425 -0.007937888 0.07137882 0.028159678
0003c0 42 ab fd 3d 2b 72 24 3d 0c 1f a2 3d 9d 37 a9 bc
       0.123861805 0.04014794 0.07916078 -0.020656401
0003d0 a2 91 dd 3d 3f 5d 38 3d 49 11 b1 3d 2f 70 1b 3c
       0.10818793 0.0450108 0.08645875 0.009487196
0003e0 a5 4e 9a 3d 2d 3f 0f 3d 5e 3f d3 3d d1 da 33 3d
       0.075345315 0.03497236 0.10314821 0.04390985
0003f0 f4 c3 a3 3d 2f 3e 32 3d 17 2c ce 3d 63 92 0f 3c
       0.079963595 0.043516334 0.10067003 0.008762929

layer.3.weight f4 [180, 180]
000000 b3 5d 0c bd 1a 00 d7 bc dd 5c 6c bc d0 70 14 bd
       -0.034269046 -0.026245166 -0.014426437 -0.0362404
000010 77 f8 03 be 16 d6 59 bd ae d6 2a bd 1c 24 db bd
       -0.1288775 -0.053182684 -0.04170864 -0.10700247
000020 08 9d c6 bd bb af 7a bd b8 76 f8 bb 1f 87 e0 bc
       -0.0969792 -0.061202746 -0.0075825118 -0.02740818
000030 8c b9 f5 bd 57 e3 03 be 16 c7 8a bd 91 3b ec bd
       -0.11998281 -0.12879692 -0.06776254 -0.11534799
000040 55 90 f3 bc 00 55 82 bd e7 e1 f7 bb 8c f8 00 be
       -0.029731909 -0.06363869 -0.0075647715 -0.12594813
000050 d2 92 41 bd 7a b4 24 bc 17 be 9e bd 7b c3 8a bd
       -0.04725916 -0.010052795 -0.077511005 -0.06775566
000060 5b ae 9d bd 65 26 f6 bd 47 ec 5d bd d5 7f 35 bd
       -0.07699271 -0.12019042 -0.05418041 -0.044311363
000070 4f 12 15 bd 15 87 03 bd 91 e5 e1 bc c6 fb 0a be
       -0.036394414 -0.032111246 -0.027575286 -0.13572606
000080 33 6e 9f bd c9 cb 9c bc 5d e6 0a be 5c 62 39 3a
       -0.07784691 -0.019140141 -0.13564439 0.00070718466
000090 28 b0 6d bd 41 6a c0 bd cd 51 84 bd dc e6 a4 bd
       -0.058029324 -0.09395266 -0.06460915 -0.080518454
0000a0 33 f6 97 bd 0e 71 ae bd f8 82 87 bd 7f 0a 3c bd
       -0.07420006 -0.08517657 -0.06616777 -0.045908447
0000b0 3f 57 22 bd 6f 87 3f bc 84 ff b4 bd 3c 4b 5f bd
       -0.039633986 -0.011690005 -0.08837798 -0.05451511
0000c0 e1 6a 0d be de e4 e9 bd 4a 1b 0b bd ad 51 09 be
       -0.13810302 -0.11420606 -0.03396157 -0.13410063
0000d0 c5 24 bf bd 2b ef 1e bd 7e f1 0d be 96 59 95 bd
       -0.09333185 -0.038802307 -0.13861653 -0.07292478
0000e0 f8 d6 fc bd ff 35 e6 bd 7d 80 c8 bd a7 45 33 bd
       -0.123456895 -0.11240768 -0.09790132 -0.043767598
0000f0 92 b0 2a bd 66 21 24 bd ed e7 a9 bd c8 d6 82 bd
       -0.041672297 -0.040070914 -0.082961895 -0.063886225
000100 bb a2 e9 bd f0 33 04 be 2e 73 b3 bd 31 da 8d bd
       -0.114079915 -0.12910438 -0.08762203 -0.06926382
000110 31 dd 7e bb 50 6a f0 bd c8 57 fd bd cd f3 ae bc
       -0.0038889165 -0.117390275 -0.123702586 -0.021356488
000120 d5 cf 0b be 91 91 2b bd 1e a9 1e bd 5e eb 0b be
       -0.136535 -0.04188687 -0.0387355 -0.13664004
000130 98 fc e3 bc 5f 1e e8 bd 59 77 bb bd 3b 7a d2 bd
       -0.027830407 -0.11333918 -0.09153623 -0.1027722
000140 95 23 57 bd 2e f2 73 bd 5f 37 f2 bd dc 08 07 be
       -0.052524168 -0.059557132 -0.118269674 -0.13186973
000150 b4 cf 0c bd 03 88 1c bd c7 a5 b8 bd b9 88 7b bd
       -0.03437777 -0.03821565 -0.090159945 -0.061409686
000160 a4 de cc bd 95 4b 34 bd c4 fe 94 bd a8 e9 fd bc
       -0.10003403 -0.044017393 -0.07275155 -0.030995205
000170 7f 95 cd bd d5 a0 a5 bd ad 51 90 bc ec fb 11 be
       -0.1003828 -0.08087317 -0.017617071 -0.14256257
000180 97 d8 b6 bd 72 da 7f bd ee 87 e5 bc cb fb cc bd
       -0.0892803 -0.062464185 -0.028018918 -0.10008963
000190 b4 5c b0 bd 28 84 24 bc 03 36 13 bd 9a f0 e2 bd
       -0.08611432 -0.010041274 -0.03594018 -0.11081047
0001a0 3c 0d 00 be 9c 1f b6 bd 1f 39 5f bb c5 80 c1 bd
       -0.12505049 -0.08892748 -0.0034061146 -0.09448389
0001b0 28 93 41 bd 9d 84 8c bd 20 41 92 bd 1e 40 1d bd
       -0.04725948 -0.068612315 -0.07141328 -0.038391225
0001c0 c1 7c 08 be 7e 48 80 bd 8f 3d 5e bc 65 28 19 bd
       -0.1332884 -0.06263827 -0.013564481 -0.03739204
0001d0 a6 d2 09 be 7e b9 ca bc 11 fe 96 bc 92 8e 38 bd
       -0.13459262 -0.024746653 -0.018431695 -0.04505784
0001e0 8c 64 2c bc 8e 3a 09 bc 63 ad 8c bd 09 ad 01 be
       -0.010522019 -0.008375777 -0.068690084 -0.12663664
0001f0 a9 4b 14 bd 9d 7e b7 bd aa 99 a8 bd ae 97 e3 bd
       -0.036204968 -0.089596964 -0.08232434 -0.11112915
000200 62 4a 8c bd 5f 29 e1 bc d4 68 81 bd 38 aa 81 bc
       -0.06850125 -0.027485548 -0.063188225 -0.015828237
000210 e8 48 0c be 33 5c 86 bd f5 1e ae bd 55 6a 0d bc
       -0.13699687 -0.06560554 -0.08501998 -0.008631309
000220 f3 d0 d0 bd 69 ff 98 bc a9 1b 8f bd 7e f5 42 bd
       -0.10196104 -0.018676477 -0.06987698 -0.0475974
000230 23 b1 b8 bd 77 60 01 be 99 66 7c bd 56 c2 ad bc
       -0.09018161 -0.12634455 -0.061621282 -0.02121083
000240 53 5a 2d bd 54 c1 8d bc 72 dd 2e bd c2 6f b7 bd
       -0.042322468 -0.0173041 -0.042691655 -0.08956863
000250 82 8f d4 bd ae b6 4d bd 4a e2 21 bd d8 43 ae bb
       -0.103789344 -0.050223045 -0.039522447 -0.005318146
000260 cf 47 e4 bd 7b 23 eb bd bb 49 92 bd 93 4c 64 bd
       -0.11146509 -0.11481377 -0.07142969 -0.05573709
000270 a5 45 c8 bd e8 9a a7 bd ba 23 3c bc f1 ae 0c bd
       -0.09778909 -0.08183843 -0.011483127 -0.034346525
000280 69 31 a8 bd 99 d2 03 be 5e e0 21 bd 9c 8a fd bd
       -0.08212549 -0.12873305 -0.039520614 -0.12379953
000290 55 d7 bd bd 3c 9a c4 bd 1b 81 b0 bc c0 26 61 bc
       -0.09269587 -0.0959973 -0.021545937 -0.013742149
0002a0 27 72 e0 bc a2 0e dd bd 6b d1 b9 bb 69 11 b8 bd
       -0.027398182 -0.107938066 -0.0056707165 -0.08987696
0002b0 c1 bd 0e be ea 01 4f bd 3b c1 99 bb 38 ef 51 bb
       -0.13939573 -0.050538935 -0.0046922243 -0.0032033455
0002c0 a6 ea 43 bd 97 19 14 be 9b 83 b5 bd 62 1f e9 bd
       -0.0478312 -0.14462887 -0.088629924 -0.11382939
0002d0 21 23 2e 3d 15 f1 20 3d 80 ee c3 3d a0 c0 ac 3d
       0.04251397 0.039292414 0.09566975 0.08435178
0002e0 59 d7 0b 3d 5d 92 fa bd 25 e2 fd ba 31 a2 8f 3c
       0.03414092 -0.12234948 -0.0019369764 0.017533394
0002f0 1c 33 62 bd 92 46 91 3c 0a 17 31 3d c2 8c db bd
       -0.055224523 0.017733846 0.043234862 -0.10720207
000300 72 d0 31 bd 16 69 dc bc f7 19 95 3d ba bc bf bc
       -0.04341168 -0.026905578 0.07280343 -0.023405422
000310 55 b2 ff 3d 48 4a 0f 3d f1 6e 6f bd 2f e6 44 bc
       0.12485186 0.03498295 -0.05845541 -0.012017771
000320 c1 9c 97 bb 1a aa 5a bc 63 bd 03 3d 8c 1e 1f 3b
       -0.004626841 -0.013346219 0.032163035 0.0024279682
000330 93 69 5e 3d 89 64 60 bc 78 b5 ff ba a2 33 1e 3d
       0.054299902 -0.013695844 -0.0019509038 0.03862346
000340 b7 3a 07 3c c8 31 8b bd c0 ac 1f bc d0 73 32 3c
       0.008253745 -0.067966044 -0.009745777 0.01089187
000350 ee e3 70 bd 3c e2 d6 3c 63 83 8f 3c c4 b5 99 bc
       -0.05881112 0.026230924 0.017518705 -0.01876343
000360 9f 31 2d 3b c9 df 23 bd e4 19 1b bd e8 a4 41 3b
       0.0026427282 -0.04000834 -0.037866488 0.0029547755
000370 d9 c1 ec 3d 6a 8f 37 bd 45 91 e0 3d 63 0b 13 be
       0.11560411 -0.044814505 0.10965208 -0.14359812
000380 b6 e6 d9 bc 2a ae 68 3d 47 14 10 be f4 b8 3f 3b
       -0.02659927 0.05680672 -0.14070235 0.0029254528
000390 81 06 0b 3d 04 93 d1 3d 5d 4c 03 3e d9 10 0c bc
       0.03394175 0.10233119 0.12822099 -0.008548939
0003a0 08 30 5f 3d 29 26 92 3d f5 84 b3 bd 0e 63 e8 3c
       0.054489166 0.07136185 -0.08765594 0.028367545
0003b0 06 a2 eb bc 7d 3d 02 bb b5 4f 5d 3d c3 97 0c be
       -0.028763782 -0.0019873076 0.054031093 -0.13729768
0003c0 2f a8 86 3b a0 8e 0e bd 0d e2 2d bc 9e e3 6a bc
       0.0041094045 -0.034803987 -0.010612977 -0.014336495
0003d0 7c c3 94 3c f8 5a fd bd 50 1c 1b bd 80 ac 5a 3d
       0.01815962 -0.123708665 -0.037868798 0.053387165
0003e0 03 b5 bb 3d 21 53 af bc cf a4 81 bd 28 79 a6 ba
       0.091653846 -0.021401944 -0.06330263 -0.0012700902
0003f0 ab 63 0e 3c 2b a2 e0 bd 33 7a 98 bc e1 72 7f 3e
       0.008690755 -0.10968431 -0.018612957 0.24946167
