model(o).pth (torch, 651173 bytes, 4 tensors)

layer.1.weight f4 [180, 720]
000000 5d 3b cb 3d 6f 45 a2 3d 7e 99 92 3d 4b a1 b2 3d
       0.09923432 0.079234 0.071581826 0.087221704
000010 03 fc ee 3d af 73 2d 3d ad 73 dc 3d 91 ef 77 3d
       0.11669161 0.042346653 0.10764251 0.060531203
000020 9b 5b f9 3d 94 de df 3d 27 e5 86 3d 43 2d 9a 3d
       0.121756755 0.10931125 0.06586676 0.07528164
000030 06 4f 82 3d 0c 56 89 3d 54 87 ce 3d 2a f3 a7 3d
       0.06362729 0.06705865 0.100844055 0.08200677
000040 eb 8e a1 3d 7e cf 99 3d f8 c2 ee 3d ae 90 99 3d
       0.078885876 0.07510279 0.11658281 0.074982986
000050 ac 7a ed 3d fa 33 be 3d 88 79 98 3d ec 9e 31 3d
       0.115956634 0.092872575 0.07445055 0.04336445
000060 7f 9d ac 3d 7c d2 96 3d d6 c0 cc 3d cb 99 97 3d
       0.084284775 0.073643655 0.09997718 0.074023806
000070 c6 3e cb 3d 03 bf 71 3d a1 12 83 3d d8 53 5e 3d
       0.099240825 0.059020054 0.064000376 0.05427918
000080 f7 53 ba 3d 5e 63 75 3d be 7c af 3d 5a 4b af 3d
       0.09098046 0.059909217 0.085687146 0.08559294
000090 f9 56 a3 3d 1f 39 d1 3d 2f 24 7a 3d fa 50 a7 3d
       0.07975573 0.10215973 0.061069664 0.08169742
0000a0 6a 71 bb 3d 22 f4 a5 3d 41 f6 c3 3d 7e 17 aa 3d
       0.091524914 0.08103205 0.095684536 0.08305262
0000b0 a3 7d ea 3d d6 8d 96 3d be 90 82 3d 2c 40 b7 3d
       0.114497446 0.07351272 0.06375264 0.08947787
0000c0 68 1c e6 3d 38 73 43 3d 07 64 c7 3d 43 ce 97 3d
       0.11235887 0.047717303 0.097358756 0.07412388
0000d0 16 f7 77 3d f4 33 9e 3d 5f cf 9f 3d 51 14 9f 3d
       0.060538374 0.07724753 0.07803225 0.07767547
0000e0 44 b5 9d 3d b5 8c 57 3d 3d c4 b8 3d 6c 3e a4 3d
       0.07700589 0.052624423 0.090218045 0.080197185
0000f0 9c 83 03 3e 0e 8a 8c 3d d1 27 89 3d 4f da b0 3d
       0.12843174 0.06862269 0.066970475 0.08635389
000100 68 df f9 3d 21 78 02 3e 25 a9 a9 3d 44 d3 a5 3d
       0.122008145 0.12741138 0.08284215 0.08096936
000110 ac 9e c5 3d cc 43 e7 3d b1 78 a0 3d 45 d6 86 3d
       0.09649405 0.11292228 0.0783552 0.065838374
000120 5e ee be 3d 66 d1 8b 3d 3a e0 96 3d 98 bb ba 3d
       0.09322809 0.06827049 0.073669866 0.09117812
000130 54 c9 b7 3d 9a 47 c1 3d 9d 8d c3 3d d4 4c c4 3d
       0.08973947 0.09437485 0.09548495 0.09584966
000140 96 50 ce 3d 33 15 8d 3d f4 78 d3 3d 43 0b d9 3d
       0.10073964 0.06888809 0.10325804 0.10597851
000150 19 2a c0 3d bc 70 bb 3d 83 0d be 3d da ef cc 3d
       0.093830295 0.09152362 0.09279921 0.100066856
000160 a8 e5 e9 3d 0f 17 64 3d 8a 6e cd 3d 2f de 9f 3d
       0.114207566 0.055686053 0.10030849 0.0780605
000170 16 3b 87 3d 30 72 c2 3d 05 9d d4 3d 3a 2e f2 3d
       0.066030666 0.09494436 0.103815116 0.11825223
000180 b0 18 aa 3d ef f2 c0 3d 0b 6f 6a 3d 5a 1c d6 3d
       0.0830549 0.09421336 0.057234805 0.104546264
000190 67 16 c5 3d fe 1a 9c 3d 21 df af 3d ac 48 e3 3d
       0.096234135 0.07622336 0.0858748 0.110978454
0001a0 d2 5c 76 3d c2 5a 97 3d 9d a5 77 3d fd 3b a1 3d
       0.060147114 0.073903576 0.060460676 0.0787277
0001b0 64 24 30 3d f2 e9 b7 3d 52 ef 43 3d db a1 d5 3d
       0.043003455 0.089801684 0.047835656 0.10431262
0001c0 1e 88 4c 3d 43 13 ff 3d ef 99 4c 3d b5 ec d0 3d
       0.0499345 0.12454846 0.04995149 0.10201398
0001d0 69 1b ca 3d fb 71 de 3d 8a 15 78 3d 80 40 dc 3d
       0.09868509 0.10861584 0.060567416 0.1075449
0001e0 d9 45 d4 3d 0a 2b 82 3d 85 71 ad 3d a3 fd c5 3d
       0.10364885 0.06355865 0.08468918 0.09667518
0001f0 5b 77 38 3d ba 37 f7 3d b4 e9 b2 3d de 81 9c 3d
       0.0450357 0.12071176 0.087359816 0.07641958
000200 ee f6 82 3d a5 70 cf 3d 57 23 c8 3d c0 e3 c9 3d
       0.06394754 0.10128907 0.097723655 0.09857893
000210 f9 34 75 3d e5 20 d0 3d 85 d5 b3 3d fb 4a eb 3d
       0.05986497 0.10162524 0.0878096 0.11488911
000220 df fc a5 3d 6c 37 ea 3d f6 c8 90 3d c8 ba df 3d
       0.08104872 0.11436352 0.0706958 0.109242976
000230 07 1d ae 3d a6 3d cb 3d 70 63 8d 3d 57 b2 e6 3d
       0.0850163 0.09923868 0.06903732 0.112644844
000240 50 f9 83 3d da 8c d4 3d 25 2f a7 3d 7f ba 9d 3d
       0.06444037 0.10378428 0.08163289 0.07701587
000250 bb d6 c4 3c cb 6b b8 3d 3e 5d 5f 3d 54 b8 a3 3d
       0.024028173 0.09004935 0.054532282 0.07994142
000260 20 6c 11 3d fc 2f 57 3d 74 8d cb 3c 2d 0f a9 3d
       0.035503507 0.052535996 0.024847724 0.08254848
000270 cf 2c 92 3d c2 4d 9e 3d 84 0d e0 3c 88 8c 96 3d
       0.07137453 0.07729675 0.027350195 0.07351023
000280 bb 53 45 3d 93 34 67 3d 0c 02 56 3d 6e 67 b0 3d
       0.048175555 0.056446623 0.052248046 0.08613478
000290 a4 70 8e 3d 18 88 9c 3d ae 51 83 3d 6f ba 99 3d
       0.06955078 0.07643145 0.064120635 0.075062625
0002a0 fc a1 97 3c d1 70 bd 3d 09 6c 26 3d f2 cb ec 3d
       0.018509857 0.09250034 0.040630374 0.11562337
0002b0 e3 6f 95 3d 6f 6e 8a 3d 63 43 fe 3c 02 78 43 3d
       0.07296731 0.06759345 0.031037992 0.04772187
0002c0 a6 30 5c 3d 56 3c a7 3d 88 79 3d 3d 4c 15 bd 3d
       0.053757332 0.08165805 0.04625848 0.09232578
0002d0 a5 31 43 3d d5 98 88 3d 7b 5d d9 3b 53 04 4d 3d
       0.047654767 0.066697754 0.006633458 0.050052952
0002e0 1b f8 96 3b 68 f2 a2 3d bf 2f 1d 3d 64 58 80 3d
       0.004607213 0.079563916 0.038375612 0.06266859
0002f0 c0 42 ed 3c 30 7d 35 3d 9a a3 74 3d c3 bf 97 3d
       0.028962493 0.04430884 0.059726335 0.074096225
000300 a6 de ba b9 a4 aa a1 3d b6 04 00 3d e1 60 95 3d
       -0.0003564257 0.07893875 0.031254493 0.07293869
000310 33 e1 71 3d 2f 1d 6f 3d 1c d4 07 3d 35 8b d0 3d
       0.059052657 0.05837744 0.033161268 0.10182802
000320 1f 9c f0 3c a8 24 b4 3d 9b 56 27 3c 43 f8 25 3d
       0.02937132 0.08796054 0.010213519 0.040519964
000330 23 02 71 3c 32 35 47 3d 5f 8d ad 3c 0d 27 87 3d
       0.014709982 0.048634715 0.021185575 0.06599245
000340 de 45 9b bb 1e 3a af 3d 66 8c 29 3c 49 a7 8b 3d
       -0.0047385534 0.08556007 0.010348415 0.068190165
000350 b9 7a 40 bc f1 b6 cd 3c f8 0c 4a 3a 03 5d 04 3d
       -0.011748009 0.025111647 0.0007707621 0.032315265
000360 dc 4f 0d 3b 93 9e 22 3d b6 64 6a bc 45 f8 5a 3d
       0.0021562492 0.03970201 -0.014306238 0.053459425
000370 37 6c 3d 3d a8 5e 6d 3c f6 63 94 3c 29 b0 20 3d
       0.04624578 0.0144879 0.018114071 0.0392305
000380 7f 3b f3 3c e1 84 ba 3c 9c ff cb 3a 44 b4 34 3d
       0.029691456 0.02276844 0.0015563848 0.044117227
000390 c4 5f b4 3c 95 a5 00 3d 11 08 f5 bc 31 f4 e0 3c
       0.02201832 0.03140791 -0.029911073 0.02746019
0003a0 42 dd 9a bc 23 71 64 bc 03 50 99 ba 3b 79 7d 3d
       -0.018904332 -0.0139429895 -0.0011696819 0.061883193
0003b0 f9 8b 07 3d 96 f0 c0 3c 6d 47 df bb 83 c5 b4 3c
       0.033092473 0.02355222 -0.0068139345 0.022066837
0003c0 0c ec 19 bd e1 c0 36 3d 03 f4 94 3c 53 36 1a 3c
       -0.037578627 0.044617537 0.01818276 0.009412366
0003d0 da 4c 18 bd e0 6e d0 bb c8 37 16 3d 91 3c cd 3c
       -0.037182666 -0.0063608736 0.03667429 0.025053294
0003e0 5b f8 1d bd fc b5 1f bd 22 75 45 bc 02 38 c0 3b
       -0.03856693 -0.038991913 -0.012051852 0.0058660517
0003f0 f3 29 3f bc bb a2 12 3d 58 b3 0d bd 8c b7 db bc
       -0.011667716 0.035799723 -0.034594864 -0.02682092

layer.1.bias f4 [180]
000000 80 0a 15 3d c1 ab 03 3d db f7 b9 bc 74 d7 91 bb
       0.036386967 0.03214622 -0.022701195 -0.004450733
000010 25 da f4 bb b4 59 fd 3c e8 c0 62 3c fc c8 89 bd
       -0.007472294 0.030926563 0.013839938 -0.06727788
000020 64 d4 05 bd 09 93 42 3b f2 08 cd bc 95 31 4a 3b
       -0.032673255 0.002968969 -0.02502868 0.0030852307
000030 25 c7 e8 3c ab 8f 67 3c 53 2c 0f bd 33 c5 02 bd
       0.028415272 0.014133374 -0.03495438 -0.031926345
000040 b5 9e bb bc 3c bf e1 bb ef a8 e2 3c 7f 35 43 bd
       -0.022902826 -0.006889252 0.027668444 -0.04765844
000050 67 9e 02 bd 4f 5b 0c 3d ae 9f 28 bc aa 5a 2a 3d
       -0.031889345 0.034266766 -0.010291977 0.04159037
000060 ec 59 0b 3c 3e 4a 71 bc 2f db 61 3b 9c e7 d7 3c
       0.008505326 -0.014727173 0.003446292 0.026355557
000070 56 c9 f2 bc 95 3a 0a 3d 65 1e e3 3c fc 10 de bb
       -0.02963702 0.033747274 0.027724454 -0.006776927
000080 41 5a 9e bc e4 82 9d 3c e7 df a4 bc 91 9c d1 3c
       -0.019330146 0.019227453 -0.020126296 0.025587352
000090 d6 58 28 3d b6 e5 8a 3b 3b 53 0d bd 88 37 89 bc
       0.041100346 0.0042388095 -0.034503203 -0.016750112
0000a0 f2 02 0f bc 14 cb 07 bd 17 4a 02 bd 77 d3 59 bb
       -0.00872873 -0.033152655 -0.03180894 -0.0033237615
0000b0 86 15 af bc 38 a8 06 3d 8c 7f a2 3b 23 34 f4 3c
       -0.021372568 0.03287527 0.0049590524 0.029810017
0000c0 b6 51 b5 3c 36 5e 07 bd df 53 37 bb d5 ed 0c 3d
       0.02213369 -0.03304883 -0.0027973575 0.0344065
0000d0 c7 28 e0 3c 3e 35 80 bc 21 ba bb 3c 4b 9c e6 3c
       0.027363194 -0.015650388 0.022915902 0.028150698
0000e0 2c a2 8c bc 7a cc 20 bd 16 f4 6d 3c 6d 5b f8 bc
       -0.017167173 -0.039257504 0.014523527 -0.030317033
0000f0 97 32 5f 3b 61 38 0b 3d 95 01 ab bc 6b 52 ea bc
       0.0034057254 0.033989314 -0.020874778 -0.028603753
000100 28 48 bb bc 90 a9 f4 3b d4 41 01 bd e0 a5 f3 3c
       -0.022861555 0.0074665025 -0.03155692 0.029742181
000110 72 8f 65 bc 18 16 20 3c 5f a1 6b 3d d4 7d 10 bc
       -0.014011251 0.009770893 0.057526942 -0.008819062
000120 6f 63 e6 bc 97 85 3c bd 24 ea 79 ba 2f 93 e8 3c
       -0.028123586 -0.04602584 -0.0009533486 0.028390495
000130 ff c8 be bc 0e aa 3f 3d f5 e1 f2 3c f9 21 0b 3c
       -0.023289202 0.046793036 0.02964876 0.008491986
000140 b7 ee 0e bd 74 d0 cb bc dc f4 06 3c a6 88 27 3c
       -0.034895625 -0.024879672 0.00823709 0.010225451
000150 1b ef 8d 3c a9 f3 8b bb 1a 0c c0 bc d2 7e 26 bc
       0.017325928 -0.00427099 -0.02344327 -0.010162072
000160 af a7 9d 3c dd 14 55 bd 71 b4 51 bc e2 98 ec 3c
       0.019244997 -0.05202185 -0.012799368 0.028881494
000170 dd 9d a6 bb b0 3d cb bc c3 da 10 3c 8b b9 9a bc
       -0.0050847367 -0.024809688 0.008841219 -0.018887302
000180 09 a4 d6 bc 40 14 00 3c 42 22 db 3c ba 9d 8d bc
       -0.026201265 0.007817328 0.026749734 -0.017287124
000190 92 15 70 3c 50 d8 35 bd 75 b9 aa 3c 6a 76 c8 3c
       0.01465358 -0.044395745 0.020840386 0.024470527
0001a0 3e bf cc 3c f4 78 c7 3c 8d 46 07 3c ae 0a 89 3c
       0.024993535 0.024349667 0.008256567 0.016728725
0001b0 cc 42 e9 bc 50 83 85 bc 6c bf 84 bc f8 c3 81 3c
       -0.028474234 -0.016297966 -0.016204558 0.015840515
0001c0 76 01 ba 3b bf 7b 15 bc 46 cb 8b bb f3 08 8e 3b
       0.0056764437 -0.009123742 -0.0042661754 0.004334563
0001d0 23 29 91 bc 75 97 05 bc 6a 89 72 3b e8 13 92 bc
       -0.01771981 -0.008153786 0.0037008175 -0.017831758
0001e0 7e 8b a9 3c ba c6 98 bc 85 46 8f bb d1 a2 fa bc
       0.020696398 -0.018649448 -0.0043724203 -0.030595215
0001f0 c8 5b a8 3c a9 3d f3 bc 6d b8 20 bd 5c 0b fb 3b
       0.020551577 -0.029692488 -0.039238382 0.0076612663
000200 11 61 4b 3d 25 01 80 3b cf cc f6 bc 88 19 85 bc
       0.049653117 0.0039063864 -0.030126957 -0.016247526
000210 d2 11 e3 bc 95 6c 06 bd 68 e4 cb bb b7 21 6c 3b
       -0.027718458 -0.032818396 -0.0062222965 0.0036030838
000220 ac 79 25 3b a0 3a a7 3c 6f 1e 96 3b 16 35 ce bb
       0.0025249524 0.020413697 0.0045812647 -0.0062929494
000230 6b af c6 3c a3 6e 0c bc b5 65 af bb 59 1d b4 3b
       0.024253568 -0.0085713 -0.0053527006 0.0054966626
000240 00 c6 73 bb b3 91 41 bc eb f4 2a bd 14 48 c6 3c
       -0.0037196875 -0.011814523 -0.04173748 0.024204291
000250 0f df 1a 3c cb 7e 80 bd 8b e1 b0 3b 18 c0 89 bc
       0.009452595 -0.06274184 0.0053979806 -0.01681523
000260 bd 6e db bb 88 5d 2b 3c a7 24 1a 3c 64 6d 92 bc
       -0.0066965506 0.010459311 0.009408153 -0.017874427
000270 c7 c9 82 3b 92 e7 a2 3c c6 28 57 bc 0d 5b d9 bc
       0.003991339 0.019885812 -0.01313228 -0.026532674
000280 bc 10 a2 ba e4 c4 c1 bc b0 65 e6 3c 0d fa 23 3d
       -0.0012364606 -0.023653455 0.02812466 0.04003339
000290 8c 07 f8 bc 2d de 13 bc a0 d8 c8 bb e4 eb 56 bc
       -0.030277036 -0.009025139 -0.0061293393 -0.013117764
0002a0 24 08 a6 bc e9 b0 ac bc 59 9e 03 bc 20 ee 7c bc
       -0.020267554 -0.021080451 -0.0080333585 -0.015437633
0002b0 f7 18 1e 3c 65 94 b1 3c 3f e3 05 bd 87 04 e1 bc
       0.009649507 0.021677205 -0.032687422 -0.02746798
0002c0 26 87 31 3b 4e b8 f5 3b f8 66 b4 bc f2 7a 24 bd
       0.0027088611 0.0074987775 -0.022021756 -0.040156312

layer.3.weight f4 [180, 180]
000000 3e 33 f7 bd 2a 86 6d be 34 c5 26 be d2 5d cc bd
       -0.120703205 -0.23195711 -0.16286165 -0.09978832
000010 bc f3 7a bd 97 c9 1b be ac 7b ea bd 16 b3 8b 3d
       -0.0612676 -0.15213619 -0.1144937 0.06821267
000020 96 e2 7e bd 18 a7 cb bd 3a c7 f7 bd 8f f4 52 bd
       -0.062227808 -0.0994398 -0.12098546 -0.05150276
000030 6d 5a 45 be d8 fc 6c bd 1d ff 64 bd cc 96 cf bd
       -0.19272776 -0.057858318 -0.055907357 -0.10136184
000040 e7 19 33 be 5c da 70 bd d8 2d bb bd 3f cf 4f 3d
       -0.1749035 -0.058801994 -0.091396034 0.050734755
000050 5b 81 0b bd aa 74 73 bd b5 10 38 be 34 91 df bd
       -0.03405891 -0.05943743 -0.17975123 -0.10916367
000060 a2 10 2c be 5c 03 e9 be 9d 4b eb be 55 c1 f9 be
       -0.1680322 -0.45510375 -0.45956126 -0.48780313
000070 7e 95 94 3c 9c b7 dc bd 8a 1a 84 bd eb 9a f1 bd
       0.01813769 -0.10777208 -0.064503744 -0.117971264
000080 c2 83 d1 bd fd 2a 3d be 86 18 0e be 83 71 dc bd
       -0.10230209 -0.1847343 -0.13876542 -0.10763838
000090 96 41 c2 be 4b 76 4e be 51 33 ae bd fa c2 c6 3c
       -0.37940663 -0.20162313 -0.085058816 0.024262894
0000a0 b3 b5 26 be 8a 96 70 be db 1d 0d bf cd aa 34 be
       -0.1628025 -0.23494926 -0.5512368 -0.1764328
0000b0 aa 55 27 be e3 cb 12 be e6 b2 05 bc 8c 1e 98 bd
       -0.16341272 -0.14335589 -0.0081603285 -0.07427701
0000c0 c0 38 72 bd f3 4e 6e 3d 6e 59 89 bd c9 12 20 be
       -0.059136152 0.05818076 -0.067065105 -0.15632166
0000d0 79 69 8a bd f7 ad 90 bd e0 da 24 be f2 ae 1b be
       -0.067583986 -0.07064431 -0.16099119 -0.15203455
0000e0 55 5b 11 bf d5 a0 d7 be 2f 5d 18 be ec 00 9b bd
       -0.56779987 -0.42114893 -0.14879297 -0.07568535
0000f0 bf f3 d5 bd 7f 05 1f be f9 79 11 bf a2 8f 9a 3c
       -0.104468815 -0.1552944 -0.5682674 0.018867318
000100 0e f0 70 be 30 17 d5 bd fe 92 fe bd af d3 c6 bd
       -0.23529074 -0.10404813 -0.1243038 -0.09708344
000110 83 de 0a be e4 35 cc be 7b 25 0f be 1a 90 01 be
       -0.13561444 -0.39884865 -0.13979141 -0.12652627
000120 28 03 cd bc 0a 13 bf bd 35 97 43 bd 3b 03 c0 bd
       -0.02502592 -0.09329803 -0.047751624 -0.09375616
000130 c7 3a 0e be 37 96 b5 bd e2 13 f8 bc f0 ab 31 be
       -0.1388961 -0.08866542 -0.030282918 -0.17350745
000140 a6 3c 09 be 27 bd 21 be e3 9b e6 bd 08 a7 eb bd
       -0.13402042 -0.15794812 -0.11260202 -0.11506468
000150 e6 88 3d be 72 ae 1e be 12 ad e4 bd dd 4b 17 be
       -0.18509254 -0.15496233 -0.11165823 -0.14775033
000160 82 83 9a bd bc 8f 6e bb d3 f1 a4 be fa 5f 0c bf
       -0.075446144 -0.003640159 -0.32215747 -0.5483395
000170 99 4a 5c bd e3 34 34 be 9e 1d 83 bd 72 1a 24 be
       -0.05378208 -0.175983 -0.064021334 -0.16025713
000180 25 85 29 be 9c 2a dc bd e7 7c 90 bd ba 7a fb bd
       -0.16554697 -0.107503146 -0.07055073 -0.122792676
000190 2f 52 e2 bd d4 fd ba bd de 2b 35 be 9e 9e bb bd
       -0.110508315 -0.09130445 -0.17692515 -0.09161113
0001a0 26 41 b5 be d8 6e 1d bf 91 a1 a7 be e7 ee 50 be
       -0.35401267 -0.6149726 -0.32740453 -0.20403634
0001b0 6f 9a 0e be 1f 62 3a bf 1b c6 8d bd 3e 04 1d bf
       -0.13926099 -0.7280597 -0.06922551 -0.613346
0001c0 31 78 03 bd 67 96 3c bd 6b 82 dd bd ca 24 c4 bd
       -0.032097045 -0.046041872 -0.10815891 -0.095773295
0001d0 70 bb fb bd 01 85 d2 bd bb 29 19 be c6 32 f3 bd
       -0.1229161 -0.10279275 -0.14957325 -0.11874919
0001e0 da 35 2d bf a0 be 81 bd ba 1c 01 be cf f3 7a bd
       -0.67660296 -0.06335187 -0.12608615 -0.06126767
0001f0 a3 1c 2d bf 6d 75 30 be 3c 52 c6 bd c4 6e 5f be
       -0.6762182 -0.17232294 -0.09683654 -0.21819597
000200 d8 27 16 be 82 bf 0c bd 14 a6 05 be 38 7c 5c be
       -0.14663637 -0.034362324 -0.13051635 -0.2153176
000210 17 12 c3 bd fd 64 34 be 59 f3 b2 be 8e 7e 70 bd
       -0.09524935 -0.17616649 -0.34951285 -0.058714442
000220 d9 71 84 3d 81 9d 16 bf db 87 41 be 68 fc 21 be
       0.06467027 -0.5883408 -0.18899481 -0.15818942
000230 0c b5 5a be fa f9 13 be 79 06 05 be 4e 76 1c be
       -0.21358126 -0.14450827 -0.1299075 -0.15279505
000240 82 1b 1f be a9 ed ce bd 05 f5 47 bd 52 97 17 be
       -0.15537837 -0.10103924 -0.048817653 -0.14803818
000250 5e 7a 07 be a0 bf 08 be f9 6f 9c bd df 55 06 be
       -0.13230273 -0.13354349 -0.076385446 -0.13118695
000260 35 69 0d be 41 de 40 bd fb ac 08 be 6d b4 0c bd
       -0.13809665 -0.047086958 -0.13347237 -0.034351755
000270 34 3f 15 be a1 3b 2d be b7 51 17 be 31 bb 09 be
       -0.14574891 -0.16917278 -0.14777265 -0.13450314
000280 2a 93 8f bd 99 f8 d8 bd 4a 0a c8 bd 77 2f e4 be
       -0.07010491 -0.10594291 -0.097675875 -0.44567463
000290 b7 70 94 bd ef d7 02 be 89 6c 6c be e0 f6 1d be
       -0.07248061 -0.12777685 -0.23088278 -0.15426207
0002a0 07 9e a2 be 3d 10 d0 bd be 17 14 be 80 ea 66 be
       -0.3176119 -0.10159347 -0.14462182 -0.22550392
0002b0 70 02 82 bd 85 94 22 be a8 1b 18 be 36 f4 4b 3c
       -0.06348121 -0.15876968 -0.148543 0.012448361
0002c0 7c 63 c5 bc 75 78 f9 bd 65 13 08 bd 49 38 01 be
       -0.02409529 -0.121811785 -0.03322162 -0.12619127
0002d0 ba 7e 62 bd a2 b7 1b 3d 56 1d 26 bf 0f 02 04 3d
       -0.055296637 0.038016923 -0.64888513 0.032228526
0002e0 84 11 05 bd 21 6a 77 bd 22 c9 d0 3d 0e f4 58 3d
       -0.032487407 -0.060403947 0.10194613 0.052967124
0002f0 88 f8 b5 be 0c 4e da bc 2d f3 43 3e 95 34 81 3d
       -0.35541177 -0.026648544 0.19135733 0.06308857
000300 a3 2d 22 3d 2c 78 45 3c d6 33 5c bd b5 dd 65 3d
       0.039594304 0.012052577 -0.053760372 0.05611964
000310 71 f8 b5 3b 97 a2 1d bd 73 c9 52 3c c2 a2 19 3d
       0.005553298 -0.038485136 0.012865412 0.037508734
000320 82 b8 35 3e d4 84 a7 3b e4 75 3c bf df 09 7a 3d
       0.17746165 0.00511227 -0.73617387 0.06104457
000330 1b ec d4 bc b1 50 9f be 12 3d 1a bf d0 66 72 bd
       -0.02599149 -0.3111625 -0.60249436 -0.05918008
000340 0e f5 d1 3c 5b c9 29 bd bf 35 b9 3d 97 0d 0b 3e
       0.025629546 -0.041451793 0.090434544 0.13579403
000350 07 57 8c bd 26 8b 90 3d 2a 24 c3 bc 8e 89 81 bd
       -0.06852537 0.070577905 -0.023820955 -0.063250646
000360 1a 2d 62 3d 6b e2 d5 3c 84 88 0f bc 50 f4 db bc
       0.055218793 0.026108941 -0.008760575 -0.026849896
000370 32 08 05 bf b5 d0 16 3d b5 bf 59 bb e7 f8 fa bc
       -0.5196563 0.036820132 -0.0033225839 -0.030636264
000380 a3 40 05 3d c7 ef 25 bd 4b 03 98 bd a0 56 31 3d
       0.032532346 -0.040511873 -0.07422503 0.043295503
000390 76 4f ab 3d d0 2d a9 3a b8 51 71 be d8 69 57 3e
       0.08364765 0.001290733 -0.2356633 0.2103647
0003a0 60 66 ac 3d 85 9f bb 3c 57 ca 9f 3b 0d 6f 06 bf
       0.08417964 0.022903213 0.0048764157 -0.525132
0003b0 28 24 a5 3c b1 39 d4 be 0c 87 ad 3d 04 17 5e 3e
       0.020158842 -0.41450265 0.08473024 0.21688467
0003c0 3d cb 02 bf 7a f4 b0 3d 70 35 18 be f6 22 80 3d
       -0.51091367 0.0864038 -0.14864135 0.06256668
0003d0 c2 c6 5a 3d 53 b5 db 3c 17 4c bb bc 02 9b 37 3e
       0.053412206 0.02681986 -0.02286343 0.17930225
0003e0 be 91 b6 be f1 c7 b8 bc ec a6 04 be ac 9d 5b 3d
       -0.35658067 -0.022556277 -0.129543 0.053617164
0003f0 c8 75 ed 3d dd 64 ce 3d 00 f2 10 3e f3 9f 81 3c
       0.115947306 0.10077832 0.14154816 0.01582334

layer.3.bias f4 [180]
000000 95 cd 95 bd c7 2e aa bd d2 3a d1 bd 21 60 8d bc
       -0.07314602 -0.08309703 -0.10216297 -0.017257752
000010 d8 96 2f bd 6b 19 b6 bb 43 27 34 bd b5 d1 ca 3c
       -0.042868465 -0.0055572293 -0.043982755 0.0247582
000020 36 c2 e4 bc 96 9b 40 bd f8 a6 08 3b d0 86 ac 3d
       -0.027924638 -0.04702338 0.0020851474 0.08424151
000030 45 96 ad 3d ba 2c b3 3d 1a 0b 7c 3d f8 cb 64 3c
       0.08475927 0.08748765 0.061534025 0.013964646
000040 c1 9c 38 bd f6 8c be bc 4e 8e 8e 3d a0 51 a4 bc
       -0.045071367 -0.023260575 0.06960736 -0.020058453
000050 92 bd 95 3d ef 64 64 bc 46 95 9d 3d 33 46 a1 3d
       0.07311548 -0.01394008 0.07694487 0.078747176
000060 d5 56 0a 3d 19 d2 9e 3c 22 1a ae 3d d1 e8 f8 bb
       0.033774216 0.019387292 0.08501078 -0.0075961133
000070 c1 7d 8f 3c 6c 9c d1 ba c4 ca fa 3d be fd a1 3d
       0.017516019 -0.0015992052 0.12245706 0.079097256
000080 4e d5 ff 3d c8 52 dd 3d 93 70 0a 3d 5a 1c 8c 3d
       0.124918565 0.10806805 0.033798765 0.06841345
000090 55 57 c5 3d f4 7e b7 3d 2a 25 42 3d 36 4b d0 bb
       0.09635798 0.08959761 0.047398724 -0.006356622
0000a0 2e 81 07 3e 89 cd af 3d 66 37 5a 3d 3e 9c f7 3d
       0.13232872 0.085841246 0.05327549 0.12090348
0000b0 29 5a 9b 3c 56 60 8c 3d c0 d2 0c 3c b1 cc 2d 3d
       0.01896389 0.06854312 0.008595169 0.042431537
0000c0 0e 46 53 3d 42 50 98 3c 80 a5 01 3e 92 9d e8 3b
       0.05158048 0.018592957 0.1266079 0.007098862
0000d0 8a 06 c0 3d db 31 98 bb b0 ff c7 3d cf b1 cf 3d
       0.09376247 -0.004644615 0.097655654 0.10141336
0000e0 9a de 32 3d 51 d8 68 3d 7c 5d dc 3d c0 c3 5b bd
       0.04366932 0.05684692 0.10760018 -0.05365348
0000f0 ec 61 cd bc 76 15 c5 3d b0 58 36 bd 1a 7c 80 bd
       -0.025071107 0.09623234 -0.044518173 -0.062736705
000100 1c a7 a5 bd 60 13 56 bd 84 1f 00 3c 6a 81 d0 bd
       -0.08088514 -0.05226457 0.007820014 -0.10180934
000110 02 3e 52 bd 39 2c 0e bd 6d 21 90 bd 55 5d 3c bc
       -0.051328667 -0.034710143 -0.070376255 -0.011496861
000120 78 15 8a bd 3a 23 ad bd fb 2f 9b bd 0e 57 b9 3b
       -0.06742376 -0.084539846 -0.07577511 0.0056561297
000130 99 d7 a1 bb d2 b6 c4 bd 8b ea 1f be 41 1c b7 bc
       -0.0049390313 -0.09605183 -0.15616815 -0.02235234
000140 78 e5 1f bc f6 bd 90 bd 31 01 02 be 54 23 40 bd
       -0.009759299 -0.07067482 -0.12695767 -0.04690869
000150 10 24 24 be 3a 78 dc bd 1b b5 ed bd 82 b3 be bd
       -0.16029382 -0.10765119 -0.11606809 -0.09311582
000160 04 81 b9 bd 3b ca a4 bd 88 ad 04 be bd 29 89 bd
       -0.09057811 -0.08046385 -0.12956822 -0.06697414
000170 d8 19 94 bd 6f 45 b1 bd 7a 0e 0a be ed aa 0d bc
       -0.07231492 -0.086558215 -0.13482085 -0.008646709
000180 85 4a c9 bd 79 da d2 bd c3 f0 a6 bd 66 c5 1a be
       -0.098286666 -0.102955766 -0.081513904 -0.15114364
000190 76 d9 51 bd 37 08 00 be c1 07 c6 bd a5 f2 1a be
       -0.051232778 -0.12503134 -0.09669448 -0.15131624
0001a0 5a 13 e5 bd 9b 8f 50 bd d1 ef ab bd b2 9d e5 bd
       -0.11185332 -0.050918203 -0.08395351 -0.112117186
0001b0 33 af 8c bc fd 36 08 be 5a bb 89 bd 56 69 c4 bd
       -0.017173385 -0.13302226 -0.067251876 -0.09590404
0001c0 fc 8b 68 bc b0 95 d0 3b 0e 11 a4 bd 1d c4 37 bd
       -0.014193531 0.0063655004 -0.080110654 -0.044864763
0001d0 b5 fd d6 3c 3d ea c2 bd 36 c6 64 3b 03 c2 b4 bd
       0.026244024 -0.09517334 0.0034908182 -0.08826067
0001e0 5e db 11 bc dc d4 94 3a f8 26 67 3c 95 d4 56 bd
       -0.008902399 0.0011354941 0.014108412 -0.052448828
0001f0 06 d0 0b bd 36 26 a6 3c 09 92 b6 3c 7d b1 82 bd
       -0.034133933 0.020281892 0.022286432 -0.063815095
000200 6e c7 4f bd 7a 9a b8 bd 03 18 98 3d a8 c1 91 3c
       -0.0507273 -0.09013839 0.07426455 0.017792538
000210 49 8c ee bb 4a e7 c0 bc f4 c0 f8 3c ec 35 91 bc
       -0.007279907 -0.023547787 0.030365445 -0.017725907
000220 70 3a 10 bd c2 bf 13 3c 2e ea 09 bc c2 5f f0 3d
       -0.03521198 0.009017887 -0.008417649 0.11737014
000230 2c 6a 7b 3d 25 df 86 3d 64 0a 57 3d 4a 93 c1 3c
       0.06138055 0.0658553 0.052500144 0.023629803
000240 19 dc 41 bb 8c c3 a1 3d 06 3c 04 3d 9e 46 a9 3b
       -0.0029580651 0.07898626 0.032283805 0.005165889
000250 7f 7a ba 3d 2b 6b 8c 3b 78 a1 c5 3d aa 27 53 3d
       0.091053955 0.0042852364 0.09649938 0.0515515
000260 d5 82 31 3d 7b f3 8c 3d e5 8c 7d 3d a9 e4 59 bc
       0.04333766 0.06882378 0.061901946 -0.013299146
000270 0f 77 83 bc de 89 14 3e 43 ef ec 3c 04 80 a7 3d
       -0.016047982 0.14505717 0.028922683 0.08178714
000280 27 3b 90 3d a8 e0 17 3c 47 57 af 3d 82 f9 04 bd
       0.070425324 0.009269871 0.08561569 -0.03246451
000290 e4 0f 8e 3d a3 50 0f bd 4f 9c 0a bb 7c 5c f8 3d
       0.06936625 -0.03498901 -0.0021150296 0.12127015
0002a0 db 55 92 3d 1f 24 66 ba 82 a6 c7 bb fb 48 89 bc
       0.07145282 -0.0008779186 -0.0060928473 -0.016758433
0002b0 d5 d8 4f 3d df 7d 9b 3d 5b de 41 bd 2a 20 27 bd
       0.050743897 0.075923674 -0.047331195 -0.04080216
0002c0 3e 43 9f bd 0c c0 99 3c 5b e9 d4 bb c3 20 63 bd
       -0.07776497 0.018768333 -0.0064975447 -0.055451166
